mmm_experiments/models/2022-nov/low_q_low_fidelity.ckpt (torch, 727897 bytes, 1344 tensors)

classifier.sub_nets.0.net.0.net.0.weight f4 [8, 1, 5]
0	0x3cfe8c77	0.031072838
1	0xbe71dc80	-0.2361927
2	0xbe8bbc3d	-0.27292052
3	0xbea8b067	-0.32947084
4	0xbd5e814c	-0.054322526
5	0x3e7d2d37	0.2472428
6	0x3ea076b1	0.31340554
7	0xbdd5f504	-0.10447124
8	0xbeabb34a	-0.33535224
9	0xbe1ebb13	-0.1550105
10	0x3edd15f8	0.43180823
11	0xbd3ad7ff	-0.045616146
12	0xbe5789f4	-0.21048719
13	0x3e627d7e	0.22118184
14	0x3d064526	0.03278079
15	0x3dfe507b	0.12417694
16	0xbde613ed	-0.11234269
17	0x3dac71ed	0.08420167
18	0x3f00a8eb	0.5025775
19	0x3e153d71	0.1457422
20	0xbd8f70a1	-0.07003904
21	0x3e657f68	0.22411883
22	0xbe27513e	-0.16339585
23	0xbee8560f	-0.45378157
24	0xbef30f7a	-0.47472745
25	0x3e0b32af	0.13593553
26	0x3e1db3b1	0.15400578
27	0x3c723221	0.0147824595
28	0x3e4bae83	0.1989079
29	0xbea45dcf	-0.3210282
30	0xbee946ec	-0.45561922
31	0xbeedfdfc	-0.46482837
32	0x3df3e4f6	0.11908905
33	0xbe49075e	-0.19631717
34	0x3ed968cb	0.42462763
35	0xbe5a7484	-0.2133351
36	0xbe209e1d	-0.15685315
37	0xbe492a2e	-0.19644997
38	0xbdc4e9f0	-0.096149325
39	0xbc0f6c03	-0.008753779

classifier.sub_nets.0.net.0.net.0.bias f4 [8]
0	0x3cf92ede	0.030417856
1	0xbee82cf3	-0.45346794
2	0x3d96c5ac	0.07361922
3	0xbce282f0	-0.027650326
4	0xbed29055	-0.41125742
5	0x3eb38003	0.35058603
6	0x3e7a9ef6	0.24474701
7	0xbe82ace2	-0.25522524

classifier.sub_nets.0.net.0.net.3.weight f4 [8]
0	0x3f973e98	1.1815977
1	0x3f923926	1.142369
2	0x3f72c490	0.9483118
3	0x3f733a96	0.9501127
4	0x3f783ff4	0.96972585
5	0x3f6ecb73	0.9327919
6	0x3f6ed25a	0.9328972
7	0x3f693682	0.910988

classifier.sub_nets.0.net.0.net.3.bias f4 [8]
0	0xbd895085	-0.06704811
1	0xbe080beb	-0.13285796
2	0xbbed793a	-0.0072471173
3	0xbd496e0c	-0.049177215
4	0xbc0b1c13	-0.00849058
5	0x3c9949d3	0.01871196
6	0x3d97f060	0.07418895
7	0xbdc10727	-0.09425192

classifier.sub_nets.0.net.0.net.3.running_mean f4 [8]
0	0x3c7b7b26	0.015349185
1	0xbdba2d5b	-0.09090682
2	0x3db867f4	0.090042025
3	0x3c7b62b0	0.015343353
4	0xbdb70a55	-0.089375176
5	0x3eb740bf	0.35791585
6	0x3e65c428	0.22438109
7	0xbd66168f	-0.056173857

classifier.sub_nets.0.net.0.net.3.running_var f4 [8]
0	0x3a16daf4	0.00057546725
1	0x36d657e2	6.387928e-06
2	0x3ad8f2ef	0.0016551892
3	0x3b8fef5a	0.0043925466
4	0x39a96abc	0.00032313715
5	0x39bf0ee5	0.00036441456
6	0x3b08d530	0.0020879023
7	0x392c811e	0.00016451298

classifier.sub_nets.0.net.1.net.0.weight f4 [8, 8, 5]
0	0xbd9fabb5	-0.077964224
1	0x3ae8241c	0.0017710957
2	0x3e5cf4e4	0.21577793
3	0xbe06d491	-0.13167025
4	0xbe4223f4	-0.18959028
5	0x3ebf6da4	0.37388337
6	0x3d068090	0.03283745
7	0xbe2204cb	-0.15822141
8	0xbed804ee	-0.4219126
9	0xbe8eddcc	-0.27903593
10	0xbdb33764	-0.08750799
11	0xbdd8c34f	-0.10584127
12	0x3d9b2b22	0.07576586
13	0xbb74f6d2	-0.0037378562
14	0x3cd479fe	0.025937077
15	0x3d8cc735	0.06873933
16	0x3de6b1f8	0.112644136
17	0xbd13f007	-0.03611758
18	0x3dcdf195	0.10055844
19	0xbd96dfa7	-0.07366877
20	0xbe040dd6	-0.12895903
21	0x3cb1d440	0.021707654
22	0x3c754889	0.014970907
23	0xbe0d6ae1	-0.13810302
24	0x3d78aa8b	0.060709517
25	0xbca8b6e6	-0.020595025
26	0xbd5dd3da	-0.054157116
27	0xbdf0132b	-0.11722406
28	0xbdf265b0	-0.118358016
29	0x3a4281eb	0.0007419872
30	0xbdf888f0	-0.12135494
31	0x3ba190ab	0.004930576
32	0x3c8cff05	0.017211447
33	0x3de4e8d4	0.11177221
34	0x3dd657d7	0.10465973
35	0xbe26ab4b	-0.1627628
36	0x3de98f46	0.1140428
37	0xbd51eb56	-0.051249824
38	0xbdc5ac3a	-0.0965199
39	0xbbe51fe8	-0.006992329
40	0x3e941882	0.28924948
41	0x3b13de51	0.002256293
42	0x3db7bdba	0.08971734
43	0x3df19b90	0.11797249
44	0xbe358460	-0.17726278
45	0xbe721261	-0.23639823
46	0x3d9f41d1	0.07776225
47	0xbd6ab2dd	-0.057299484
48	0x3dc7350e	0.09726916
49	0xbe254944	-0.1614123
50	0xbdb25894	-0.08708301
51	0x3c1afd84	0.009459857
52	0x3ca8bfbb	0.020599237
53	0xbe1720b4	-0.14758569
54	0x3c2e7430	0.010647818
55	0xbcf1d605	-0.029520998
56	0x3e1be7a0	0.15225077
57	0xbde70ea1	-0.11282087
58	0xbd3bfc4f	-0.045894917
59	0x3d714b9e	0.058910005
60	0xbca671c1	-0.020317914
61	0x3e12c8b1	0.1433437
62	0xbdd58b7c	-0.10426995
63	0xbbb4056a	-0.0054938095
64	0xbcae6857	-0.021289987
65	0xbe0cb54e	-0.13741037
66	0xbd4a798e	-0.04943233
67	0x3e1d12d1	0.15339209
68	0x3d917efc	0.071042985
69	0xbe451f93	-0.19250326
70	0x3e3fc35a	0.18726864
71	0xbdbfba32	-0.09361686
72	0xbd00b221	-0.031419877
73	0xbc5fa23d	-0.01364952
74	0x3bc44b26	0.0059904037
75	0xbdb3f832	-0.08787574
76	0xbd98147b	-0.07425781
77	0xbd03c757	-0.032172527
78	0xbdce59b6	-0.10075705
79	0x3d386ccf	0.045025643
80	0x3b080c0e	0.0020759138
81	0xbcefeb8b	-0.02928712
82	0xbdf9c428	-0.12195617
83	0x3d3e74a5	0.04649796
84	0xbdc30625	-0.09522656
85	0x3e2ab069	0.16668858
86	0xbcb7bb44	-0.022428162
87	0xbdcc0536	-0.099619314
88	0xbe94216d	-0.28931752
89	0xbe66a46d	-0.22523661
90	0x3e2dd335	0.169751
91	0x3d862bf3	0.065513514
92	0xbde53756	-0.11192195
93	0x3e0e6293	0.1390479
94	0xbdd9b062	-0.106293455
95	0x3dde6f1f	0.108610384
96	0xbe3e3686	-0.18575487
97	0xbdc707dd	-0.09718297
98	0xbd97d9b4	-0.074145705
99	0x3e31179a	0.1729416
100	0x3cefed6e	0.02928802
101	0x3df20169	0.11816675
102	0x3da918ad	0.0825666
103	0x3cda3e17	0.026640935
104	0xbdde0afd	-0.108419396
105	0x3de3afb1	0.11117495
106	0xbb7cddcf	-0.0038584357
107	0x3dda392f	0.10655438
108	0x3c466d91	0.012111084
109	0xbce5c300	-0.028047085
110	0xbe81c317	-0.25344154
111	0x3e23ecc2	0.16008285
112	0x3e27b8a6	0.16379032
113	0x3c1d7a35	0.009611656
114	0x3d14f091	0.036362235
115	0xbe09232c	-0.13392323
116	0xbd26f561	-0.040761355
117	0x3d1f2ca0	0.038860917
118	0xbde92b54	-0.11385217
119	0x3da4f2de	0.08054136
120	0x3df7e36f	0.121039264
121	0xbd9c4351	-0.07630027
122	0x3d35f7f7	0.04442593
123	0xbd88d70b	-0.06681641
124	0xbe2efc85	-0.17088516
125	0xbe18aaa1	-0.1490884
126	0x3c41b41a	0.011822725
127	0xbdcdf0d3	-0.10055699
128	0xbe3b9e24	-0.18322045
129	0xbea06306	-0.3132555
130	0x3b2d8493	0.0026476725
131	0x3d0dc5c8	0.034612447
132	0xbc6cf72e	-0.014463229
133	0xbd5fc3bd	-0.05463003
134	0x3d683561	0.05669153
135	0xbd6ed906	-0.05831244
136	0x3d5900c6	0.052979253
137	0x3e155d0b	0.14586274
138	0xbd97e895	-0.074174084
139	0x3d846df9	0.06466288
140	0x3e22c501	0.15895464
141	0x3e1b4e8e	0.15166685
142	0xbdacaa90	-0.0843097
143	0xbca0996a	-0.019604404
144	0xbe267e25	-0.16259058
145	0xbe4d3cdb	-0.20042746
146	0xbd8055f0	-0.06266391
147	0xbdc33c56	-0.095329925
148	0x3dd7bafc	0.10533711
149	0xbe11ab4f	-0.14225505
150	0x3de89e8c	0.113583654
151	0x3e6b60e1	0.22986175
152	0xbd75a9da	-0.059976436
153	0xbd441762	-0.047873862
154	0xbe2b3cd1	-0.16722418
155	0xbe086db7	-0.13323103
156	0x3d81ecfe	0.06344031
157	0xbe086688	-0.13320363
158	0x3dc4fb17	0.09618204
159	0x3e1164bf	0.14198588
160	0xba6113a0	-0.0008585993
161	0x3e5ece6e	0.21758434
162	0x3e1a5990	0.15073228
163	0xbdbf7de3	-0.09350183
164	0xbe6c7007	-0.2308961
165	0xbbabdca1	-0.005244807
166	0x3dc57247	0.09640937
167	0xbe0e473f	-0.13894366
168	0x3cbb254e	0.022844937
169	0xbc11632a	-0.00887374
170	0x3dbb5b48	0.0914827
171	0x3e1e82ec	0.1547963
172	0x3d029fe8	0.03189078
173	0x3ced2dc1	0.028952481
174	0x3e0be94b	0.13663213
175	0xbc3db328	-0.011578359
176	0x3e2e3ff2	0.1701658
177	0xbdb0db67	-0.08635598
178	0xbe357bf4	-0.17723066
179	0xbc92b8fe	-0.017910477
180	0x3dc56de1	0.09640098
181	0x3d67a00f	0.05654913
182	0x3deda2da	0.11603327
183	0x3e1086eb	0.14113967
184	0x3dfcbfaa	0.123412445
185	0xbd96b085	-0.07357887
186	0x3c18ba8f	0.009321823
187	0x3c981a51	0.018567236
188	0xbdf864de	-0.12128614
189	0x3dcbc2bd	0.09949253
190	0xbd81c4f5	-0.06336395
191	0x3dc9be07	0.09850698
192	0x3ded62a6	0.11591081
193	0xbdf5ef19	-0.12008495
194	0xbccaa85f	-0.024738489
195	0xbd43fcae	-0.047848396
196	0xbd680f18	-0.05665502
197	0x3de75b5e	0.11296724
198	0x3d44303c	0.047897562
199	0x3de825d7	0.113353424
200	0x3c3dd927	0.011587418
201	0xbd8c38c1	-0.068467624
202	0x3e0c3160	0.1369071
203	0x3d181f55	0.037139256
204	0x3d9b45dc	0.07581684
205	0xbd8d10c1	-0.06887961
206	0xbc9fd845	-0.019512305
207	0x3e101979	0.14072217
208	0x3dbc5cff	0.09197425
209	0x3cc6b7d4	0.024257578
210	0xbe081608	-0.13289654
211	0xbd80d77e	-0.06291102
212	0x3d233804	0.039848343
213	0x3d479262	0.048723586
214	0x3d818e4b	0.06325968
215	0xbdf3ec23	-0.11910274
216	0xbd5757dc	-0.052574024
217	0xbc5ece55	-0.013598998
218	0x3cf908b4	0.030399658
219	0xbc182b66	-0.009287691
220	0x3da316cb	0.07963332
221	0x3db7e07c	0.08978364
222	0xbd6c2402	-0.057651527
223	0x3e1671f3	0.14691906
224	0xbb951e51	-0.004550733
225	0x3ca45fde	0.020065244
226	0xbe311ba4	-0.172957
227	0x3b2cd63b	0.0026372808
228	0x3c638080	0.013885617
229	0x3d96411f	0.073366396
230	0xbe4c4249	-0.19947161
231	0xbe38c565	-0.1804405
232	0xbdf4e50e	-0.11957751
233	0xbd559fd3	-0.052154373
234	0xbc846d81	-0.016165497
235	0xbdb5f766	-0.08885078
236	0x3de6f972	0.11278047
237	0x3d9f013b	0.077639066
238	0x3e199740	0.14999104
239	0x3d7f9b30	0.062403858
240	0xbce1825c	-0.02752798
241	0x3e1bf8fc	0.15231699
242	0xbe04b8fb	-0.1296119
243	0xbd694557	-0.056950893
244	0xbdb99f18	-0.09063548
245	0x3e0235fe	0.12715909
246	0x3dab1bac	0.08354887
247	0xbddc0484	-0.10743049
248	0xbe16a1b7	-0.14710127
249	0xbd499aee	-0.049220018
250	0xbd3b26a7	-0.04569116
251	0x3d6c8f5e	0.057753913
252	0xbe6571f8	-0.22406757
253	0xbd8cced4	-0.06875387
254	0xbe1242bc	-0.1428327
255	0xbd67a4dc	-0.056553707

classifier.sub_nets.0.net.1.net.0.bias f4 [8]
0	0xbd1f5cf7	-0.038907018
1	0x3e3f348d	0.1867239
2	0x3dd2afb2	0.102874175
3	0xbc9784ee	-0.018496003
4	0xbdb1c636	-0.08680384
5	0xbe80774a	-0.2509101
6	0xbd03a8b5	-0.032143313
7	0x3d9faa3c	0.077961415

classifier.sub_nets.0.net.1.net.3.weight f4 [8]
0	0x3f87b76f	1.0602854
1	0x3f7a69fc	0.9781797
2	0x3f6d4347	0.9268078
3	0x3f55a1e7	0.8345017
4	0x3f859a6c	1.0437751
5	0x3f6d7e4b	0.9277083
6	0x3f7c40b9	0.9853626
7	0x3f8473ef	1.034788

classifier.sub_nets.0.net.1.net.3.bias f4 [8]
0	0xbd9c0f90	-0.07620156
1	0x3e021936	0.1270493
2	0xbd4b2fe4	-0.04960622
3	0xbd42672b	-0.04746167
4	0xbd88e5e3	-0.066844724
5	0x3d4cc5b9	0.04999325
6	0x3c35edcc	0.0111040585
7	0x3d8b831d	0.06812117

classifier.sub_nets.0.net.1.net.3.running_mean f4 [8]
0	0x3e0dd39d	0.13850255
1	0x3ea2291b	0.31671986
2	0x3e683fc9	0.22680582
3	0x3e47c83a	0.19509974
4	0x3cab8634	0.020938016
5	0xbd8f8239	-0.0700726
6	0x3ec42a81	0.38313678
7	0x3f1a9904	0.60389733

classifier.sub_nets.0.net.1.net.3.running_var f4 [8]
0	0x3e9610df	0.29309747
1	0x3d8f6787	0.07002168
2	0x3e59d471	0.21272446
3	0x3ec27f56	0.37987775
4	0x3c577fe6	0.013153052
5	0x3c447535	0.011990835
6	0x3ebb8142	0.36622053
7	0x3f17389c	0.59070754

classifier.sub_nets.0.net.2.net.0.weight f4 [4, 8, 5]
0	0xbe29ee61	-0.1659484
1	0xbe485507	-0.19563685
2	0xbe5ef449	-0.21772875
3	0xbe65d789	-0.22445501
4	0xbe49fe2b	-0.19725864
5	0x3ded3018	0.11581439
6	0x3deb0b56	0.114767715
7	0x3dac9a9a	0.084279254
8	0x3dc45fbb	0.09588572
9	0x3c407000	0.011745453
10	0x3e0c82ee	0.1372182
11	0x3dd0ca71	0.10194863
12	0x3e1f6c90	0.15568757
13	0x3e28f4c2	0.16499618
14	0x3e09e5b3	0.1346653
15	0x3cf45366	0.029824924
16	0x3df19a48	0.11797005
17	0x3d0b835c	0.03406082
18	0x3d9ac649	0.07557351
19	0x3e43886e	0.19095013
20	0xbde1b6e4	-0.11021212
21	0xbe1d3ebd	-0.15355964
22	0xbe32fe6a	-0.17479864
23	0xbe09f9e8	-0.13474238
24	0xbdfc3be2	-0.12316109
25	0x3e4853a7	0.19563161
26	0x3d9f9c24	0.07793453
27	0x3d00eb9a	0.031474687
28	0x3d830903	0.06398203
29	0x3de5ef84	0.112273246
30	0x3b424584	0.0029643485
31	0x3c73ede3	0.01488826
32	0x3de9baec	0.11412606
33	0xbc29d60c	-0.010365974
34	0xbc5de4ac	-0.013543289
35	0x3cda1c3e	0.026624795
36	0x3dbf6180	0.093447685
37	0xbb80933e	-0.0039238026
38	0xbc6c1d43	-0.014411273
39	0x3ba2d59a	0.004969311
40	0xbb979659	-0.004626077
41	0xbcb786bd	-0.022403115
42	0x3d2a07d0	0.041511357
43	0xbc0797a1	-0.008275897
44	0xbd243f13	-0.040099215
45	0xbd8d1175	-0.06888095
46	0xbe00a66e	-0.12563488
47	0xbd21d56a	-0.039510168
48	0xbd85d0c3	-0.06533959
49	0xbda1ce78	-0.07900709
50	0x3b43b0be	0.0029859985
51	0x3d472bd7	0.048625793
52	0xbd6ad4fa	-0.057332017
53	0x3c0ff2e7	0.00878594
54	0x3cc98153	0.0245978
55	0x3d96f1a5	0.07370309
56	0x3d98431a	0.074346736
57	0x3da6ef35	0.08151094
58	0x3d13af21	0.036055688
59	0x3d301e41	0.042997602
60	0x3dc20987	0.094744734
61	0x3dc16fa6	0.094451234
62	0x3da6795e	0.08128618
63	0x3dac3d6a	0.08410151
64	0x3d2226ee	0.039587907
65	0xbe40154d	-0.18758126
66	0xbc4618a5	-0.012090837
67	0xbd8d1bc9	-0.06890065
68	0xbd77005d	-0.06030308
69	0xbde1b7a3	-0.11021354
70	0xbe85783b	-0.2606829
71	0xbdc4faa4	-0.096181184
72	0xbe0df5a8	-0.13863242
73	0xbe1ecadf	-0.15507077
74	0xbc3c0f05	-0.01147819
75	0x3e9128c5	0.28351417
76	0x3de64ec8	0.11245495
77	0x3d974ea4	0.073880464
78	0x3e82d20c	0.25550878
79	0x3e70630c	0.23475283
80	0x3d16e4c8	0.036839277
81	0x3db21c92	0.086968556
82	0x3df33575	0.118754305
83	0x3d92689c	0.07148859
84	0x3d95d844	0.0731664
85	0xbe3f4275	-0.18677695
86	0xbe12466a	-0.14284673
87	0xbd3f114b	-0.04664735
88	0xbdf45633	-0.11930504
89	0xbd9dc267	-0.07703095
90	0xbde1e2fb	-0.11029621
91	0xbd9d4610	-0.07679379
92	0xbd73b985	-0.059503097
93	0xbdcca685	-0.099926986
94	0xbc733e48	-0.014846392
95	0x3dbb6490	0.0915004
96	0x3d9e2233	0.07721367
97	0x3c90c849	0.017673628
98	0xbd070334	-0.03296204
99	0xbd232b95	-0.039836485
100	0x3e0c6101	0.13708879
101	0x3e0c58cc	0.13705748
102	0x3e10de6b	0.14147346
103	0x3dffe1df	0.12494253
104	0x3e1842bb	0.14869206
105	0xbdaac781	-0.083388336
106	0xbd2ae17a	-0.041718937
107	0xbdb99a9d	-0.09062693
108	0xbd73ecd1	-0.059552018
109	0xbd2a6944	-0.041604295
110	0xbe0ed8b7	-0.13949858
111	0xbd8f5eb9	-0.07000489
112	0xbdb6158a	-0.08890827
113	0x3cf8979f	0.030345736
114	0xbd658e28	-0.056043774
115	0x3de69d60	0.11260486
116	0xbc0def5c	-0.008663025
117	0x3d88f7c3	0.06687882
118	0x3caf84fe	0.02142572
119	0x3d40958e	0.047017626
120	0xbe338657	-0.17531715
121	0xbe2ea2c1	-0.17054273
122	0xbe36072e	-0.17776176
123	0xbe5a942f	-0.2134559
124	0xbe419e6d	-0.18908091
125	0x3e0541e8	0.13013422
126	0x3dfedfe8	0.124450505
127	0x3d84cc06	0.06484227
128	0x3dbc77a8	0.0920251
129	0x3cae8a27	0.02130611
130	0x3dfdaf9f	0.12387013
131	0x3de87fc8	0.11352497
132	0x3e03e73f	0.12881182
133	0x3df9bf50	0.12194693
134	0x3da96e15	0.082729496
135	0x3d1f8464	0.038944617
136	0x3da45824	0.08024624
137	0x3c091cce	0.008368684
138	0x3d885e7c	0.066586465
139	0x3e52ae47	0.20574294
140	0xbe1ea20d	-0.15491505
141	0xbe164785	-0.1467572
142	0xbe07842f	-0.13234018
143	0xbe06fbdc	-0.13182014
144	0xbe12b657	-0.1432737
145	0x3e3044b1	0.17213704
146	0x3e11eeef	0.14251302
147	0xbcde722e	-0.027154054
148	0x3df8017d	0.12109659
149	0x3d4b1aaa	0.049585976
150	0x3e1218b3	0.14267235
151	0xbbf96157	-0.0076104808
152	0xbcae02c1	-0.021241548
153	0x3daabc61	0.08336712
154	0x3d49385a	0.049126007
155	0xbd3beda0	-0.045880914
156	0x3d8463e4	0.06464365
157	0x3d1dc6da	0.038519718
158	0xbd3fb6ea	-0.0468053
159	0xbd5b28bd	-0.053505648

classifier.sub_nets.0.net.2.net.0.bias f4 [4]
0	0x3dab9406	0.083778426
1	0xbd76be98	-0.060240358
2	0x3e1a172d	0.15047903
3	0x3ddb6cd3	0.10714116

classifier.sub_nets.0.net.2.net.3.weight f4 [4]
0	0x413af38f	11.684463
1	0x41255ead	10.335614
2	0x412c5486	10.770636
3	0x412507a3	10.314364

classifier.sub_nets.0.net.2.net.3.bias f4 [4]
0	0x3f37bb3f	0.7177009
1	0x3da80c5d	0.08205483
2	0xbf812177	-1.0088338
3	0x3f893c87	1.0721596

classifier.sub_nets.0.net.2.net.3.running_mean f4 [4]
0	0x3e807748	0.25091004
1	0xbbbd970a	-0.0057858275
2	0x3d8ed419	0.06974048
3	0x3e8a2313	0.26979885

classifier.sub_nets.0.net.2.net.3.running_var f4 [4]
0	0x3cbbe4e4	0.022936292
1	0x3bbba54f	0.0057264934
2	0x3c97ceaa	0.018531162
3	0x3ce0ea58	0.027455494

classifier.sub_nets.0.net.5.weight f4 [13, 4]
0	0x3fa81b50	1.3133335
1	0xc02bef12	-2.6864667
2	0xbfa85614	-1.3151269
3	0x3f9a9ed0	1.2079716
4	0x3e9d0605	0.30668655
5	0xc039745a	-2.8977265
6	0xbf6ca55b	-0.9243981
7	0x3eb89831	0.36053613
8	0xc033332d	-2.7999985
9	0x40213a93	2.5192
10	0x403af4f8	2.9212017
11	0xc0336a11	-2.8033488
12	0x3f6dce86	0.92893255
13	0x40363c66	2.8474364
14	0xbf6fbc41	-0.9364663
15	0x3f51ce04	0.8195498
16	0x3fd28e3f	1.644966
17	0xc0186bef	-2.3815877
18	0xbfb75907	-1.4324044
19	0x3fbeb093	1.4897636
20	0x3f9e3839	1.2360908
21	0xbf18ec20	-0.597353
22	0xbf849723	-1.0358623
23	0x3f826431	1.0186826
24	0x3fa432aa	1.2827961
25	0xc0189f4b	-2.3847225
26	0xbfa6974c	-1.3014922
27	0x3f9a9763	1.207745
28	0x3f4b42ed	0.79398996
29	0x409a9479	4.830624
30	0xbe9bb198	-0.3040893
31	0x3f0ecfa5	0.5578559
32	0xc06600d8	-3.5938015
33	0x3f9f4e32	1.2445738
34	0x402d292e	2.7056384
35	0xc05d46ed	-3.457454
36	0xbd6f82eb	-0.058474462
37	0x3fa463ec	1.2842994
38	0x3f908c0a	1.1292737
39	0x3dc4b9a4	0.09605721
40	0xc011f39e	-2.2804942
41	0xc04b69a3	-3.1783226
42	0x3f92db13	1.1473106
43	0xbfe063a7	-1.7530411
44	0xc0568ae9	-3.3522284
45	0x3ef03d2d	0.46921673
46	0x4016e6f2	2.3578458
47	0xc04e2754	-3.2211504
48	0xc07eb828	-3.97999
49	0x40708451	3.758076
50	0x40841ffe	4.1289053
51	0xc09aa52f	-4.832664

classifier.sub_nets.0.net.5.bias f4 [13]
0	0xc010e492	-2.2639508
1	0x3f70d39b	0.94072884
2	0x401ae13d	2.4199975
3	0xbd713f1e	-0.058898084
4	0xbeacfcf1	-0.3378673
5	0xbffcff9f	-1.9765509
6	0x3f446c04	0.7672732
7	0x3f8b4afb	1.0882257
8	0x40322765	2.7836545
9	0xbd728a89	-0.05921415
10	0xbde9bc80	-0.11412907
11	0xbf3ed9a9	-0.74550873
12	0xc04fe376	-3.248258

classifier.sub_nets.1.net.0.net.0.weight f4 [8, 1, 5]
0	0xbe5a9c5f	-0.21348713
1	0x3d7c3a2f	0.061578926
2	0x3eaa85ad	0.33305112
3	0x3b767e35	0.0037611846
4	0x3ebf060d	0.37309304
5	0xbe6f11cf	-0.23346637
6	0xbdbbf36f	-0.09177291
7	0x3dac4cce	0.08413087
8	0xbd902d5e	-0.07039903
9	0x3f010bec	0.50408816
10	0xbd668160	-0.056275725
11	0x3e85479d	0.260312
12	0x3d61424b	0.054994863
13	0xbe982ecd	-0.29723206
14	0xbe592b73	-0.21207981
15	0x3e1cd773	0.15316562
16	0x3e9d2cdd	0.3069829
17	0xbe63c486	-0.22242936
18	0xbe9f9c3b	-0.31173882
19	0xbe13386a	-0.14376989
20	0xbef68483	-0.48147973
21	0xbd509ed9	-0.05093274
22	0xbd76c7aa	-0.06024901
23	0xbda8afcf	-0.08236658
24	0xbce08b39	-0.027410137
25	0x3e51dedf	0.20495175
26	0x3e3c581a	0.18392983
27	0x3d247b56	0.040156685
28	0xbea57d72	-0.3232227
29	0xbe8d6e92	-0.2762342
30	0xbe25b080	-0.1618061
31	0x3d67da9a	0.05660496
32	0xbea178ef	-0.31537578
33	0x3e8cfa43	0.27534685
34	0xbc04d8db	-0.008108343
35	0x3e86e880	0.26349258
36	0x3e44fab6	0.19236264
37	0xbd5afd79	-0.053464387
38	0xbadb8d10	-0.0016750414
39	0xbc8a0646	-0.016848695

classifier.sub_nets.1.net.0.net.0.bias f4 [8]
0	0xbe7ec747	-0.24880706
1	0x3e9e1879	0.30878046
2	0x3e0fcd92	0.14043263
3	0xbea6914f	-0.32532737
4	0x3d3e9379	0.04652736
5	0x3d9566e3	0.07295015
6	0xbdf55b63	-0.11980321
7	0xbe4e5f1a	-0.20153466

classifier.sub_nets.1.net.0.net.3.weight f4 [8]
0	0x3f90acc8	1.1302729
1	0x3f6874ca	0.90803206
2	0x3f8240b6	1.0175998
3	0x3f58019f	0.84377474
4	0x3f835a9b	1.0262026
5	0x3f7e1b1d	0.9926012
6	0x3f6a9a8e	0.9164208
7	0x3f848cdc	1.0355487

classifier.sub_nets.1.net.0.net.3.bias f4 [8]
0	0x3d8afda5	0.0678666
1	0x3d9d545d	0.07682107
2	0xbcc6ef15	-0.024283925
3	0x3d6bbbcc	0.057552144
4	0xbe1070ce	-0.14105532
5	0xbe199e70	-0.15001845
6	0x3daa3a32	0.08311881
7	0x3e13c0f7	0.14429079

classifier.sub_nets.1.net.0.net.3.running_mean f4 [8]
0	0xbd34feb3	-0.044188213
1	0x3ea1e145	0.3161718
2	0x3e064db2	0.13115576
3	0xbd88ab28	-0.066732705
4	0x3cfba785	0.030719528
5	0x3d8986fe	0.06715201
6	0xbccdebb0	-0.025136799
7	0xbd166240	-0.036714792

classifier.sub_nets.1.net.0.net.3.running_var f4 [8]
0	0x3a19d11b	0.0005867646
1	0x39fdb360	0.00048389565
2	0x39f245f2	0.0004620995
3	0x37b4f18c	2.1570151e-05
4	0x3a254120	0.0006303955
5	0x39720d2f	0.0002308383
6	0x371c7d64	9.327519e-06
7	0x395ab94e	0.00020859131

classifier.sub_nets.1.net.1.net.0.weight f4 [8, 8, 5]
0	0x3c894657	0.016757173
1	0x3d8ae2b5	0.06781522
2	0x3c90395c	0.017605476
3	0x3e235376	0.15949807
4	0xbe8dfd36	-0.27732247
5	0x3d908740	0.07057047
6	0x3db39510	0.08768666
7	0x3e173cf9	0.14769353
8	0x3e05f246	0.13080701
9	0xbdb8bbec	-0.09020218
10	0x3d5cef24	0.053939
11	0xbd3981b1	-0.0452897
12	0xbd26bc8f	-0.040707167
13	0xbe2f6c5c	-0.1713118
14	0xbe5bf59d	-0.21480413
15	0xbe1b5636	-0.15169606
16	0x3dfb3d84	0.122675925
17	0xbe2ba440	-0.16761875
18	0x3dc25b26	0.094900414
19	0xbcb69897	-0.022289557
20	0x3c1376b2	0.009000467
21	0xbc00ab21	-0.0078533
22	0xbc81965a	-0.015818764
23	0x3d4568ac	0.048195526
24	0xbda9f39c	-0.08298418
25	0x3d968ecb	0.07351454
26	0x3d63fdb6	0.05566188
27	0x3e0f542f	0.13996957
28	0x3e1ebd50	0.15501904
29	0xbc611afa	-0.013739342
30	0x3d1e7bc0	0.038692236
31	0xbdb3a682	-0.08771993
32	0xbdd8d181	-0.10586835
33	0xbdd3c180	-0.103396416
34	0x3db0ba88	0.08629328
35	0x3d8378c7	0.06419521
36	0xbdebe9e2	-0.11519219
37	0xbe014253	-0.12622957
38	0xbe2b9435	-0.16755755
39	0xbe536066	-0.20642242
40	0xbd8d0a8e	-0.06886779
41	0xbdab4321	-0.08362413
42	0xbe18c80d	-0.14920063
43	0xbd4a6b20	-0.04941857
44	0xbd2d242b	-0.04227082
45	0xbdfa2652	-0.1221434
46	0x3dd4259c	0.10358736
47	0xbd5a2db5	-0.053266246
48	0xbc91fc1f	-0.017820416
49	0x3e60d586	0.21956453
50	0xbc9aafd4	-0.01888267
51	0xbe44c68b	-0.19216363
52	0xbe071aa2	-0.13193753
53	0x3da415f0	0.08011997
54	0x3d8e7a08	0.06956869
55	0x3acaa287	0.0015459814
56	0xbd043347	-0.032275464
57	0xbd99f910	-0.07518208
58	0xbe303a26	-0.17209682
59	0xbd623299	-0.055224035
60	0xbde7d3ab	-0.11319669
61	0xbd32ea5c	-0.043680534
62	0x3d31f550	0.04344684
63	0x3e322d62	0.17400125
64	0x3c8bfcf2	0.017088387
65	0x3e09b1d1	0.13446738
66	0x3e3a2574	0.1817835
67	0x3ddf43c5	0.10901598
68	0xbe0221d1	-0.12708212
69	0xbe9e60c4	-0.309332
70	0xbe24519b	-0.16046755
71	0xbdba713e	-0.091036305
72	0xbe10999a	-0.14121094
73	0xbda945e2	-0.08265282
74	0x3d3925ae	0.04520195
75	0xbda7976e	-0.0818318
76	0x3c4261c3	0.0118641285
77	0xbe2b77e3	-0.16744952
78	0x3e090b9b	0.13383333
79	0x39a152f7	0.00030770127
80	0xbe67f290	-0.22651124
81	0xbe895d8d	-0.26829186
82	0xbeb0e3d4	-0.3454882
83	0xbe8fabc6	-0.2806074
84	0xbd846ffd	-0.064666726
85	0x3d0c7669	0.034292612
86	0xbe0e2bd3	-0.13883905
87	0x3cf8b399	0.030359076
88	0x3dee8a8d	0.1164752
89	0xbe12e54c	-0.14345282
90	0x3d219f47	0.03945854
91	0x3d8adf37	0.06780856
92	0xbd080363	-0.033206355
93	0x3cde2791	0.027118476
94	0xbd05aad8	-0.032633632
95	0xbca4bee2	-0.020110551
96	0xbd620d1d	-0.055188287
97	0x3cd348dc	0.025791578
98	0x3dcfdb79	0.10149283
99	0xbd5b3d95	-0.053525526
100	0x3ea3952e	0.31949753
101	0x3d8c6799	0.06855697
102	0xbd0cde22	-0.03439153
103	0xbd9e6397	-0.07733839
104	0xbe1f56ca	-0.15560451
105	0x3a9bfa03	0.0011900071
106	0x3d590246	0.052980684
107	0x3caa29a0	0.020771801
108	0xbd7b460a	-0.06134609
109	0xbdb567f8	-0.08857721
110	0xbc85d26f	-0.016335694
111	0x3c8457bf	0.016155122
112	0xbdfa4e66	-0.122219846
113	0xbd29c9d7	-0.041452255
114	0xbde7baca	-0.11314924
115	0xbed0ad1c	-0.40757072
116	0xbeb251ba	-0.34827977
117	0xbf15db20	-0.58537483
118	0xbee9f9c1	-0.4569836
119	0xbe59fae7	-0.21287118
120	0x3c96acc4	0.018392928
121	0x3e338ed8	0.1753496
122	0x3db5b9a2	0.08873297
123	0x3e2025bd	0.15639396
124	0x3ddedf4d	0.10882435
125	0xbe1ed537	-0.15511023
126	0xbdd1e4a8	-0.10248691
127	0xbdc52ced	-0.096277095
128	0xbd708d32	-0.058728404
129	0xbe924414	-0.28567564
130	0x3e46eef4	0.19427091
131	0x3e5878cb	0.21139829
132	0x3e233cf2	0.15941218
133	0x3e46f7c9	0.1943046
134	0x3e36f227	0.17865811
135	0xbdc69a86	-0.09697442
136	0x3cb0edf4	0.02159784
137	0xbd9aeff1	-0.075652964
138	0x3d937445	0.07199911
139	0xbd47b884	-0.048759952
140	0xbcca5816	-0.024700206
141	0xbdb3d757	-0.08781307
142	0x3daa7f65	0.0832508
143	0x3da98213	0.08276763
144	0x3ddf7bda	0.10912295
145	0xbe34450f	-0.17604469
146	0x3bc88b0d	0.006120092
147	0xbe1d17f0	-0.15341163
148	0xbd24f852	-0.04027588
149	0xbddedd0a	-0.108820036
150	0x3df443eb	0.11927017
151	0x3e010051	0.12597777
152	0x3da587f0	0.08082569
153	0xbd95a21f	-0.07306313
154	0x3d6d18aa	0.05788485
155	0x3cfc16ef	0.030772654
156	0x3ca82f6f	0.02053043
157	0x3dbf12bd	0.09329746
158	0xbe0350ba	-0.12823763
159	0xbd14e7e0	-0.036353946
160	0x3c89da03	0.016827589
161	0x3e2c6056	0.16833624
162	0x3c93f002	0.01805878
163	0xbd6cc348	-0.057803422
164	0x3dca02be	0.09863804
165	0x3d40d081	0.047073845
166	0x3de4864c	0.111584276
167	0xbde38826	-0.11109953
168	0xbda2410a	-0.079225615
169	0xbe2afdea	-0.16698423
170	0x3d09b202	0.033617027
171	0x3e6f3417	0.23359714
172	0x3e0fbe2c	0.14037389
173	0xbd273814	-0.040824965
174	0x3e3fd5cd	0.18733902
175	0xbdf36357	-0.11884182
176	0x3d2bb381	0.041919235
177	0xbc285e4e	-0.01027639
178	0xbda3d4b5	-0.07999555
179	0xbc66a94c	-0.014078449
180	0xbc9def51	-0.019279154
181	0xbd884b4c	-0.06654987
182	0x3dfc6a66	0.123249814
183	0x3d99fee1	0.075193174
184	0x3db65cf6	0.0890445
185	0x3e3e444f	0.18580745
186	0xbc5660a3	-0.013084563
187	0x3d934f11	0.07192815
188	0x3d89298e	0.06697379
189	0x3ed58c92	0.4170881
190	0x3dc65001	0.09683228
191	0xbcf2c3cf	-0.029634384
192	0x3da65668	0.081219494
193	0x3db019b6	0.08598654
194	0xbcb07e31	-0.021544548
195	0xbe05f1da	-0.1308054
196	0x3e34a74f	0.17641948
197	0x3c4bc667	0.0124374395
198	0xbbe84d88	-0.0070893206
199	0x3d21da54	0.039514855
200	0xbd689c95	-0.056789953
201	0xbcf79d56	-0.03022639
202	0x3cab22d6	0.020890635
203	0xbdfc07ab	-0.1230615
204	0xbe662b63	-0.22477488
205	0xbe5ed6a5	-0.21761568
206	0x39a817e9	0.00032061271
207	0xbd869c14	-0.06572738
208	0x3d408abc	0.047007307
209	0xbda9ff6f	-0.08300673
210	0x3e48316f	0.19550107
211	0x3e5996eb	0.21248977
212	0x3e5706b9	0.20998658
213	0x3cbb150c	0.022837184
214	0x3db60a63	0.088887
215	0xbe3f5d6c	-0.18687981
216	0xbd6114e9	-0.054951582
217	0xbcc83f7f	-0.02444434
218	0xbd566ad6	-0.05234798
219	0x3dc399f9	0.09550852
220	0x3e813d10	0.252419
221	0x3c101f47	0.00879652
222	0x3ca667e9	0.02031322
223	0x3d3f0098	0.046631426
224	0xbca594b3	-0.020212507
225	0xbdf31615	-0.11869446
226	0x3d703d48	0.058652192
227	0x3cff8099	0.03118925
228	0x3ca5b0fe	0.020225998
229	0x3cb884a0	0.022524178
230	0xbcf38e15	-0.029730836
231	0x3e1e8f6c	0.15484399
232	0x3e2250eb	0.1585118
233	0x3dd444b5	0.10364667
234	0x3d987c5c	0.07445595
235	0xbe0f5669	-0.13997807
236	0x3ce3f941	0.027828814
237	0xbc50ceca	-0.012744615
238	0xbbe5f230	-0.0070173964
239	0xbe225f10	-0.15856576
240	0xbdf1f677	-0.118145876
241	0xbd53eeba	-0.05174134
242	0x3bd5806f	0.0065155546
243	0x3dbdabf2	0.092613116
244	0x3c70ae79	0.014690035
245	0x3d84a5e6	0.06476955
246	0xbd8708f2	-0.06593503
247	0xbdedcad9	-0.11610956
248	0xbe48bf61	-0.19604255
249	0x3e336a37	0.17520986
250	0x3d0c3a13	0.03423507
251	0xbd62220a	-0.055208243
252	0xbd01e376	-0.031711064
253	0xbcadc23b	-0.02121078
254	0xbe170f4e	-0.14751932
255	0xbe080a17	-0.13285099

classifier.sub_nets.1.net.1.net.0.bias f4 [8]
0	0xbdbe7f02	-0.093015686
1	0xbb2a374e	-0.0025972906
2	0xbdee8f26	-0.11648397
3	0xbdb88c11	-0.090110905
4	0x3d8e08cf	0.06935274
5	0xbdbc22cc	-0.091863245
6	0x3ce67f6b	0.02813693
7	0xbe6e4253	-0.23267488

classifier.sub_nets.1.net.1.net.3.weight f4 [8]
0	0x3f85c41f	1.0450476
1	0x3f6f859c	0.93563247
2	0x3f721862	0.94568455
3	0x3f77adf2	0.96749794
4	0x3f68744a	0.90802443
5	0x3f8154cd	1.0104004
6	0x3f5dafc1	0.86596304
7	0x3f8a2377	1.0792073

classifier.sub_nets.1.net.1.net.3.bias f4 [8]
0	0x3dfeddcd	0.12444649
1	0xbd8b42d0	-0.06799853
2	0x3e9dbdf0	0.30808973
3	0x3df155f6	0.11783974
4	0x3e1797c7	0.14803992
5	0xbf3c8436	-0.7363924
6	0x3d4f10e3	0.050553214
7	0x3dda8471	0.106697924

classifier.sub_nets.1.net.1.net.3.running_mean f4 [8]
0	0xbcb6ca08	-0.022313133
1	0x3d5375fa	0.051626183
2	0x3d3835a7	0.04497304
3	0x3e31afad	0.17352171
4	0x3e8a41bc	0.27003276
5	0x3e80180f	0.25018355
6	0x3e08a32f	0.133435
7	0xbd908949	-0.07057435

classifier.sub_nets.1.net.1.net.3.running_var f4 [8]
0	0x3c8f1d8f	0.01747015
1	0x3dd21f15	0.10259835
2	0x3ef1b888	0.472111
3	0x3da52fd2	0.080657616
4	0x3e32193d	0.1739244
5	0x3e9a318e	0.30115932
6	0x3e7074b0	0.23482013
7	0x3b8496df	0.0040463055

classifier.sub_nets.1.net.2.net.0.weight f4 [4, 8, 5]
0	0x3e090dfa	0.13384238
1	0x3d3c35f1	0.04594988
2	0x3d161f4b	0.036650937
3	0x3d32ea25	0.04368033
4	0xbe66bb26	-0.22532329
5	0xbd7f5685	-0.06233837
6	0xba95f2d6	-0.0011440169
7	0x3cc2e7a4	0.023792095
8	0x3cce121f	0.025155125
9	0xbd3288a7	-0.043587353
10	0xbbe3798b	-0.0069419793
11	0xbc4fe807	-0.012689597
12	0x3c8cea6f	0.01720163
13	0x3da12c20	0.07869744
14	0x3cfbe2f8	0.030747876
15	0xbe3a17b8	-0.1817311
16	0xbe360e50	-0.17778897
17	0xbe2ef292	-0.1708472
18	0xbdbc79f6	-0.0920295
19	0x3c53eb18	0.012934469
20	0xbd3b675f	-0.04575288
21	0x3ba28608	0.0049598254
22	0x3db4a3d4	0.0882031
23	0x3d523797	0.051322546
24	0x3bd41562	0.0064722756
25	0x3d1fd948	0.039025575
26	0x3d9d5953	0.07683053
27	0xbc42673c	-0.011865433
28	0x3dda45a1	0.10657812
29	0xbdc1774c	-0.09446582
30	0x3ce04ab1	0.027379366
31	0x3c4fc988	0.012682326
32	0x35e5215c	1.7071538e-06
33	0x3d5dfdfb	0.054197293
34	0xbd82c9c6	-0.063861415
35	0xbe84b419	-0.25918654
36	0xbe4e620c	-0.2015459
37	0xbe0c712f	-0.13715051
38	0xbe673f7c	-0.22582811
39	0xbe4a3481	-0.19746591
40	0x3dd3b728	0.10337669
41	0xbc664564	-0.01405463
42	0x3d2a0454	0.041508034
43	0xbb881f18	-0.0041540973
44	0xbe30ea44	-0.17276865
45	0xbd0c70cf	-0.03428727
46	0x3d01478b	0.03156237
47	0x3d32e451	0.04367477
48	0x3c88006b	0.016601762
49	0xbd9d60ce	-0.0768448
50	0x3c895811	0.016765626
51	0x3dc5a28e	0.096501455
52	0x3dd4a6cf	0.10383379
53	0x3db2c704	0.087293655
54	0x3e00f9c0	0.12595272
55	0x3dcf605c	0.10125801
56	0xbdde3cd9	-0.108514495
57	0x3bf48de7	0.007463205
58	0x3dac6b7c	0.084189385
59	0x3ccc9289	0.024972217
60	0xbd85de0d	-0.065364935
61	0xbc954303	-0.01822043
62	0x3e1b5c9d	0.15172048
63	0x3d10cb1e	0.035349958
64	0x3c233911	0.009962336
65	0xbe866b11	-0.2625356
66	0xbe51d3f1	-0.20491005
67	0x3cc0b9c7	0.023526086
68	0xbe1a1d46	-0.1505023
69	0xbe0331ee	-0.12812015
70	0x3d9cd876	0.07658474
71	0x3d2d3d90	0.04229504
72	0xbaaaa185	-0.0013018107
73	0x3d60815d	0.05481087
74	0x3cd91195	0.026497642
75	0xbe2c78a4	-0.16842896
76	0xbe053030	-0.13006663
77	0xbdef52b9	-0.116857
78	0xbe08e128	-0.1336714
79	0xbdc5f8a2	-0.096665636
80	0xbe021d47	-0.12706481
81	0xbc7ef217	-0.015560648
82	0x3c3ed8b2	0.011648344
83	0xbbb7f06a	-0.0056133764
84	0x3e4005a9	0.18752159
85	0xbe3b2ae2	-0.18278077
86	0xbe010137	-0.1259812
87	0xbde2e9f4	-0.11079779
88	0xbe4a4cbe	-0.19755837
89	0xbe2a9f1e	-0.16662261
90	0xbb2a9c12	-0.0026032967
91	0xbd7bf49a	-0.061512567
92	0x3c949f39	0.01814233
93	0xbd8817c9	-0.06645162
94	0xbdd75c0d	-0.10515604
95	0x3c3ec430	0.011643454
96	0x3d096892	0.03354699
97	0x3cd7a07d	0.026321644
98	0x3ca0b280	0.019616365
99	0x3d7a26b9	0.061072085
100	0xb99e4375	-0.00030186368
101	0xbb70899f	-0.0036703122
102	0xbcd690ea	-0.026192147
103	0xbd7cd1e8	-0.06172362
104	0xbd09fdaa	-0.03368918
105	0x3de58d04	0.11208537
106	0x3e0c1514	0.13679916
107	0x3dfea5ca	0.124339655
108	0xbc0dee07	-0.008662707
109	0xbb83b5a1	-0.0040194546
110	0x3cc18726	0.023624014
111	0x3d869237	0.06570857
112	0x3c85f194	0.016350545
113	0x3dd0e380	0.10199642
114	0x3e913c9f	0.28366563
115	0x3e5d1926	0.21591625
116	0x3e659f2f	0.22424005
117	0x3de40b66	0.111349866
118	0x3e540d2b	0.20708148
119	0x3e0152b7	0.1262921
120	0xbc7539bd	-0.014967379
121	0xbd407d2d	-0.046994377
122	0xbd38d7a9	-0.045127545
123	0xbdf67838	-0.12034649
124	0xbe5d3cd7	-0.2160524
125	0x3db4718c	0.0881072
126	0x3dc08269	0.09399874
127	0x3d9c7f91	0.07641519
128	0x3db3ded0	0.087827325
129	0x3ddff68f	0.10935699
130	0x3d4e4782	0.050361164
131	0x3d4ebca5	0.050472874
132	0x3d5f8c09	0.054576907
133	0x3d8ce6de	0.06879972
134	0x3e3f27f3	0.18667583
135	0x3c574dc7	0.013141102
136	0x3ce5596b	0.02799674
137	0x3d8b679a	0.0680687
138	0x3e078640	0.13234806
139	0x3d8b6cb0	0.0680784
140	0xbe8de3d3	-0.2771288
141	0xbe288684	-0.16457564
142	0xbdc6c3fd	-0.097053505
143	0xbdb90410	-0.09033978
144	0xbe2f110a	-0.17096344
145	0xbdcfc101	-0.101442344
146	0xbcf213a3	-0.02955038
147	0xbd686f9d	-0.056747068
148	0xbca4c5b2	-0.0201138
149	0x3e1b3286	0.15155992
150	0xba91d602	-0.0011126401
151	0xbbf0e53f	-0.007351547
152	0xb9f21159	-0.00046170762
153	0xbdaa0224	-0.083011895
154	0xbe168b13	-0.1470149
155	0xbe40ed8b	-0.18840615
156	0xbde690ca	-0.11258085
157	0xbd925f0d	-0.07147036
158	0xbd8e9842	-0.069626346
159	0xbd2e06ec	-0.04248707

classifier.sub_nets.1.net.2.net.0.bias f4 [4]
0	0xc0186ca3	-2.3816307
1	0x401baf9f	2.432594
2	0xbeb7c731	-0.35894158
3	0xbe7a6216	-0.2445148

classifier.sub_nets.1.net.2.net.3.weight f4 [4]
0	0x4191f5bd	18.24499
1	0x4159388f	13.576308
2	0x4180e4d4	16.111732
3	0x4138f570	11.559921

classifier.sub_nets.1.net.2.net.3.bias f4 [4]
0	0xbf04140f	-0.51593107
1	0x3f0f50b2	0.55982506
2	0xbf17ead2	-0.5934268
3	0xbefb4a84	-0.49080288

classifier.sub_nets.1.net.2.net.3.running_mean f4 [4]
0	0xbf049f6d	-0.51805764
1	0x40442baa	3.065165
2	0xbda16f69	-0.07882578
3	0xbd792f69	-0.06083623

classifier.sub_nets.1.net.2.net.3.running_var f4 [4]
0	0x3c4b335f	0.012402385
1	0x3dd37c11	0.10326398
2	0x3daa41b9	0.08313317
3	0x3c14bad7	0.009077749

classifier.sub_nets.1.net.5.weight f4 [13, 4]
0	0xc08f641d	-4.480971
1	0xc0a0b714	-5.0223484
2	0x40daff45	6.843661
3	0xc010dbc9	-2.2634146
4	0xbf03ebea	-0.5153185
5	0x3fd83b1a	1.6893036
6	0xc0b74986	-5.727725
7	0xbfa9ce62	-1.3266108
8	0xc0cf75d5	-6.483134
9	0xbe0810c2	-0.13287643
10	0x40a43b42	5.1322336
11	0xbfaf9ce4	-1.3719754
12	0xc0d88a33	-6.76687
13	0xc0bc0b9b	-5.8764167
14	0x410ac0c8	8.672066
15	0xc09852ab	-4.7600913
16	0x40c5f85f	6.1865687
17	0x3fd2de85	1.6474158
18	0xc0ca8592	-6.328805
19	0x3e894d5a	0.26816827
20	0x412bad80	10.729858
21	0x40b2d345	5.5882897
22	0xc0c7a1f0	-6.2385178
23	0x40bc4ca9	5.884358
24	0xbfc239e4	-1.5173917
25	0xbfed6978	-1.8547812
26	0xbe496e4c	-0.19670981
27	0xbfd487dc	-1.6603961
28	0x40f53a39	7.6633573
29	0x4095f829	4.686543
30	0xc08ab836	-4.3349867
31	0x407efe33	3.984265
32	0xbec0e3b5	-0.37673727
33	0x3fec4a89	1.8460246
34	0xc024dcac	-2.5759687
35	0x3f9b4a98	1.2132139
36	0x40d4ac6c	6.6460476
37	0x407908f9	3.8911726
38	0xc03aca09	-2.9185812
39	0x3f5f3d8e	0.872033
40	0xc02a8e47	-2.664934
41	0xbf317c69	-0.6933046
42	0x3f31326a	0.6921755
43	0xbf8ac858	-1.084239
44	0xc085650c	-4.168585
45	0xc0451d68	-3.0799198
46	0xbfe6cfa8	-1.8032122
47	0x3fea2b5c	1.8294482
48	0x4130677c	11.025265
49	0x408445e1	4.13353
50	0xc0b362ee	-5.6058264
51	0x40b9827a	5.7971773

classifier.sub_nets.1.net.5.bias f4 [13]
0	0xbfcc6cf0	-1.5970745
1	0x3fcf7e1b	1.6210359
2	0x40031955	2.0484211
3	0x3e3d5610	0.18489861
4	0xbe4551f8	-0.1926955
5	0xbf9fc006	-1.2480476
6	0x3f6f7bb7	0.9354815
7	0x3f320a47	0.6954693
8	0x402c27ba	2.6899247
9	0xbf44e832	-0.769168
10	0xbf0bf29c	-0.5466707
11	0xbfc3afb9	-1.5288001
12	0xc0455908	-3.083559

classifier.sub_nets.2.net.0.net.0.weight f4 [8, 1, 5]
0	0xbee0ccf2	-0.4390636
1	0x3e8ccac1	0.2749844
2	0xbc1014a0	-0.00879398
3	0xbed110a4	-0.40833008
4	0xbd977929	-0.07396156
5	0x3f487d1b	0.78315896
6	0x3daf2a8f	0.08553039
7	0x3e8a3a39	0.26997545
8	0xbe79d2d6	-0.24396834
9	0x3c968c78	0.018377528
10	0xbe996bff	-0.29965207
11	0x3c167c62	0.009184929
12	0x3e7f16e8	0.24911082
13	0xbe6c6bff	-0.23088072
14	0x3e80def1	0.2517009
15	0x3d67d1e3	0.056596648
16	0x3d86f2fe	0.06589316
17	0xbda242e6	-0.07922916
18	0xbc24875b	-0.010042037
19	0xbdb0fac2	-0.08641578
20	0x3def3299	0.116795726
21	0xbe94fd2b	-0.29099402
22	0xbebfcac9	-0.374594
23	0x3edc6f82	0.43053824
24	0x3ef12aad	0.47102872
25	0x3e98055b	0.29691586
26	0xbe05aef3	-0.13055019
27	0xbdeb6eac	-0.11495718
28	0xbbfaf13a	-0.007658151
29	0x3ed0d7fb	0.4078978
30	0x3e9f6633	0.3113266
31	0x3efd6c87	0.49496862
32	0x3cb084fd	0.021547789
33	0x3e07f299	0.13276137
34	0x3ce7ed06	0.028311264
35	0x3e2760ce	0.16345522
36	0xbe023b16	-0.12717852
37	0x3d906ddc	0.07052204
38	0x3e881645	0.2657949
39	0x3da138f9	0.07872195

classifier.sub_nets.2.net.0.net.0.bias f4 [8]
0	0x3eaba2f8	0.33522773
1	0x3dab2dbf	0.08358335
2	0x3ee6f202	0.45106512
3	0xbe0b9dab	-0.13634364
4	0xbed84233	-0.42238006
5	0x3ec253ba	0.37954503
6	0xbedb65c7	-0.42851087
7	0xbee8e993	-0.45490703

classifier.sub_nets.2.net.0.net.3.weight f4 [8]
0	0x3f899f09	1.0751659
1	0x3f72d129	0.94850403
2	0x3f59ffcb	0.85155934
3	0x3f4eab79	0.80730397
4	0x3f7d6af2	0.9899131
5	0x3f72762b	0.9471156
6	0x3f926acb	1.1438841
7	0x3f73d105	0.95240813

classifier.sub_nets.2.net.0.net.3.bias f4 [8]
0	0x3c4cf992	0.012510674
1	0x3db05d4a	0.086115435
2	0x3d51f927	0.051263
3	0xbb153606	-0.0022767796
4	0x3d9afa02	0.075672165
5	0x3dc215b5	0.094767965
6	0xbd509ba4	-0.05092968
7	0x3c628974	0.013826717

classifier.sub_nets.2.net.0.net.3.running_mean f4 [8]
0	0x3e9f6062	0.31128222
1	0x3df2ae76	0.11849682
2	0x3ee681d4	0.45020926
3	0xbce2c89c	-0.027683549
4	0xbda77f24	-0.08178547
5	0x3ecb289b	0.39679417
6	0xbd9b3ad0	-0.07579577
7	0xbdb340a5	-0.08752564

classifier.sub_nets.2.net.0.net.3.running_var f4 [8]
0	0x3b3cf3ff	0.0028831956
1	0x3bfcaa8a	0.0077107595
2	0x38610d42	5.3656528e-05
3	0x35beb1d7	1.4207861e-06
4	0x384f7bc5	4.9467915e-05
5	0x3aed46e6	0.0018102794
6	0x3aec45ef	0.0018026213
7	0x389ab9e5	7.377918e-05

classifier.sub_nets.2.net.1.net.0.weight f4 [8, 8, 5]
0	0x3e468790	0.1938765
1	0x3e1f1134	0.15533906
2	0x3da08dc0	0.07839537
3	0x3e2d6190	0.16931748
4	0x3e1f308d	0.15545864
5	0x3e49133b	0.19636242
6	0x3d97cefd	0.07412527
7	0x3e0f8cfb	0.14018624
8	0x3d9cd58b	0.076579176
9	0x3e117d87	0.14208041
10	0x3c4e4d09	0.012591609
11	0xbcfba085	-0.03071619
12	0xbdf2f8fd	-0.11863897
13	0xbe096275	-0.13416465
14	0x3dd0e62a	0.1020015
15	0xbe15b0cb	-0.14618222
16	0xbdb67ca3	-0.08910491
17	0x3d614e1b	0.055006128
18	0x3dc3d4b2	0.09562053
19	0x3cb503a6	0.022096466
20	0x3d68c368	0.05682698
21	0x3cfdd00a	0.03098299
22	0x3e3e6e9b	0.1859688
23	0x3e2da755	0.16958363
24	0xbbdcf419	-0.006742966
25	0x3dcfeb84	0.10152343
26	0xbd9b108b	-0.07571515
27	0x3e1e1e8e	0.15441343
28	0x3e1d8888	0.15384114
29	0xbd70b8cc	-0.058769986
30	0xbd3f04b4	-0.046635345
31	0x3d712904	0.058877006
32	0xbe532560	-0.20619726
33	0xbe39ddb4	-0.1815098
34	0x3d2c9e5c	0.04214321
35	0x3d6ab59e	0.05730211
36	0x3bc5ce10	0.0060365275
37	0x3e18a9d9	0.14908542
38	0xbc14d896	-0.009084841
39	0x37a24690	1.9344763e-05
40	0x3dfa1f6a	0.12213023
41	0xba988118	-0.0011635153
42	0x3c0b6c59	0.008509719
43	0x3dd3b49b	0.10337182
44	0xbd13a476	-0.036045514
45	0x3e2475a2	0.16060498
46	0xbdaa4bd6	-0.08315246
47	0xbaade850	-0.0013268087
48	0xbde0e58a	-0.10981281
49	0x3cd4eb1f	0.02599102
50	0xbdf50913	-0.119646214
51	0xbdc52704	-0.09626582
52	0xbb891053	-0.004182854
53	0xbe07b400	-0.13252258
54	0x3dec3427	0.11533385
55	0x3e499d66	0.19688949
56	0xbe31c28a	-0.17359367
57	0x3cc1f264	0.023675151
58	0x3e1b01f4	0.15137464
59	0xbe451dfd	-0.19249721
60	0x3d742874	0.05960889
61	0xbd59e067	-0.053192522
62	0x3ce6e37f	0.02818465
63	0x3d958733	0.07301178
64	0xbcae61ef	-0.021286933
65	0xbdcdee04	-0.100551635
66	0xbe0f79d1	-0.14011313
67	0xbe128d9d	-0.14311834
68	0xbca6a84e	-0.020343926
69	0x3d6a5e1b	0.057218652
70	0xbd828b46	-0.063742206
71	0x3bfe1b61	0.0077547287
72	0xbe57ce09	-0.2107469
73	0xbe223141	-0.15839101
74	0xbea3627d	-0.31911078
75	0x3d2d29db	0.042276245
76	0x3cacd682	0.021098379
77	0x3ddf7084	0.109101325
78	0xbded89f1	-0.11598576
79	0xbcdcb7ca	-0.026943106
80	0x3cecf115	0.02892355
81	0x3d969f77	0.07354634
82	0xbe027d95	-0.12743218
83	0xbe220242	-0.15821174
84	0xbe0a854e	-0.13527414
85	0xbe6de16c	-0.23230523
86	0x3be42d40	0.006963402
87	0x3d5f6683	0.054541122
88	0x3d506862	0.050880797
89	0xbe243251	-0.16034819
90	0x3dddc94a	0.108294085
91	0xbd8d27d7	-0.068923645
92	0x3d3f319f	0.04667818
93	0x3d67e31d	0.056613076
94	0xbcb025cd	-0.0215024
95	0xbc34fd6f	-0.011046751
96	0x3d8d9d3e	0.06914757
97	0x3c4d3ddd	0.012526956
98	0x3df4752f	0.119364135
99	0x3d211217	0.039323892
100	0xbd324575	-0.04352327
101	0x3c6e5f1e	0.014549045
102	0xbe24e01c	-0.16101116
103	0xbd7d40ee	-0.0618295
104	0xbe381a10	-0.17978692
105	0xbe24fc08	-0.16111767
106	0xbe352a1c	-0.17691845
107	0xbe0deff2	-0.13861063
108	0xbd446340	-0.047946215
109	0xbe1ae9ae	-0.15128204
110	0x3abdfe7d	0.0014495399
111	0x3e3b4d4d	0.18291207
112	0xbb94f80d	-0.0045461715
113	0x3dd056f5	0.10172836
114	0x3e178ed6	0.14800581
115	0xbdcc84c4	-0.099862605
116	0xbe279c78	-0.16368282
117	0x3d834065	0.06408767
118	0xbd86005f	-0.065430395
119	0x3cfedbe8	0.031110719
120	0xbe81feef	-0.2538981
121	0xbe5473b6	-0.20747265
122	0xbe307a74	-0.17234212
123	0xbe1974b8	-0.14985931
124	0xbdda9ce6	-0.10674457
125	0xbcf6b3d0	-0.030115038
126	0xbd335610	-0.043783247
127	0xbd47bf3d	-0.048766363
128	0xbdf45a3d	-0.11931274
129	0xbd6a5084	-0.057205692
130	0xbb464671	-0.0030254389
131	0x3d16d4a3	0.03682388
132	0xbd75318a	-0.059861697
133	0xbe168c15	-0.14701875
134	0x3dd4b209	0.1038552
135	0x3e230ba5	0.15922411
136	0xbdb14769	-0.086561985
137	0x3dcf97c6	0.1013637
138	0xbd59fca5	-0.053219456
139	0xbe236825	-0.15957697
140	0xbdd4ba44	-0.1038709
141	0xbd66afa8	-0.056319863
142	0xbde028a2	-0.1094525
143	0x3cdd733b	0.027032485
144	0xbda0fcd9	-0.07860727
145	0xbd196931	-0.037453834
146	0xbb3396ab	-0.0027403038
147	0x3d76fa3c	0.060297236
148	0xbdedbfde	-0.116088614
149	0x3dc57e88	0.096432745
150	0x3cad4cad	0.021154726
151	0xbc96c7db	-0.018405845
152	0x3d1275a5	0.035756726
153	0x3d15fbda	0.036617137
154	0xbdc6b71b	-0.09702893
155	0xbe14e0cb	-0.14538877
156	0xbe127393	-0.143019
157	0xbdfb6995	-0.122759975
158	0x3dba8631	0.09107626
159	0x3e2a4bd9	0.16630496
160	0x3e3fd154	0.18732196
161	0x3dad2f0b	0.08456238
162	0x3d86d2db	0.06583186
163	0x3dfd2bd0	0.12361872
164	0x3e18ad2e	0.14909813
165	0xbd245715	-0.04012211
166	0x3d56c91c	0.052437887
167	0xbdff48a9	-0.12465031
168	0x3e693d85	0.22777374
169	0xbd48771f	-0.048941728
170	0xbdf02af0	-0.1172694
171	0xbd994fba	-0.0748591
172	0xbddef21a	-0.10886021
173	0xbdcaf2d0	-0.09909594
174	0xbd9dfa93	-0.07713809
175	0xbe0ffa66	-0.14060363
176	0x3c73f458	0.014889799
177	0x3e3bbe89	0.18334402
178	0x3e28f3df	0.1649928
179	0x3e322cdd	0.17399926
180	0x3de4b545	0.11167387
181	0x3bd222ab	0.006412824
182	0xbe746f0f	-0.2387049
183	0xbd89aafe	-0.06722067
184	0x3d650561	0.055913333
185	0xbce8b609	-0.028407114
186	0xbd5b2121	-0.05349839
187	0xbd96f498	-0.07370871
188	0x3dcc8fbc	0.09988353
189	0xbe3f2b5f	-0.18668889
190	0xbd364243	-0.044496786
191	0xbe679f1f	-0.22619294
192	0xbd2466cb	-0.040137094
193	0xbdae2596	-0.08503263
194	0xbd56991d	-0.052392114
195	0xbe0d5011	-0.13800074
196	0x3d9d0cc6	0.07668452
197	0xbdd0a152	-0.101870194
198	0xbbbd5444	-0.0057778675
199	0xbc996449	-0.018724578
200	0xbe7eecfb	-0.24895088
201	0xbc9d33c9	-0.019189732
202	0xbd22a2d7	-0.039706077
203	0x3df8e8cd	0.12153778
204	0xbc3a74ee	-0.011380417
205	0x3e3bf983	0.183569
206	0xbc182763	-0.009286734
207	0x3de96c70	0.11397636
208	0xbda7f6ef	-0.08201396
209	0xbdac7ceb	-0.08422264
210	0xbe2211b0	-0.1582706
211	0xbd8ff6ba	-0.07029481
212	0xbe3df05c	-0.18548721
213	0xbe3dd49f	-0.1853814
214	0x3e8cf45b	0.27530178
215	0xbcd7cc2c	-0.026342474
216	0xbdd5ab4b	-0.10433062
217	0x3e27d4c5	0.16389759
218	0xbd9637b8	-0.07334846
219	0x3d3d7d4a	0.046262063
220	0xbd3986da	-0.04529462
221	0x3de13d5e	0.10998033
222	0xbe1b2b22	-0.15153173
223	0x3dba63b4	0.09101048
224	0x3d816ed2	0.063199654
225	0x3d84db1f	0.064871065
226	0xbb45cb29	-0.0030180907
227	0xbbaab86f	-0.0052099745
228	0x3d277fb2	0.040893264
229	0x3df26764	0.118361264
230	0xbe7f58be	-0.24936196
231	0xbcfe268b	-0.031024238
232	0x3db8b297	0.09018438
233	0xbd1a3638	-0.037649363
234	0x3e279f56	0.16369376
235	0xbd883314	-0.066503674
236	0xbcb6b88d	-0.022304798
237	0x3ddbeb3c	0.10738227
238	0xbe0e3ca2	-0.13890317
239	0x3ce61c2e	0.028089609
240	0xbe52087d	-0.2051105
241	0xbd655b03	-0.055995
242	0x3d114f24	0.035475865
243	0x3d701581	0.058614258
244	0x3c00e401	0.00786686
245	0x3e406e75	0.18792136
246	0x3d13b044	0.036056772
247	0x3e081590	0.13289475
248	0xbdf5c374	-0.1200017
249	0x3e3f2910	0.18668008
250	0xbe4b27f3	-0.19839458
251	0x3d20f57b	0.03929661
252	0xbcff0373	-0.031129574
253	0xbd80959a	-0.06278534
254	0xb9943e99	-0.000282754
255	0xbdc493af	-0.09598481

classifier.sub_nets.2.net.1.net.0.bias f4 [8]
0	0xbd9d4074	-0.07678309
1	0xbce987d7	-0.028507156
2	0xbce979bb	-0.028500428
3	0xbe9dfce9	-0.30857018
4	0xbc16d49d	-0.009205964
5	0xbde007e2	-0.109390035
6	0x3d1843f7	0.03717419
7	0xbe19811b	-0.14990656

classifier.sub_nets.2.net.1.net.3.weight f4 [8]
0	0x3f844f50	1.0336704
1	0x3f635262	0.8879758
2	0x3f80c902	1.0061343
3	0x3f8e1830	1.1101131
4	0x3f76c300	0.96391296
5	0x3f84128f	1.0318164
6	0x3f81c0cc	1.0136962
7	0x3f775b15	0.96623355

classifier.sub_nets.2.net.1.net.3.bias f4 [8]
0	0x3bc20ada	0.0059217038
1	0x3d1efaad	0.03881328
2	0x3d67759d	0.05650865
3	0xbdbfeb2c	-0.09371027
4	0xbd28a670	-0.041174352
5	0x3dd965e2	0.10615136
6	0x3bf7c014	0.0075607393
7	0xbd214cde	-0.039379947

classifier.sub_nets.2.net.1.net.3.running_mean f4 [8]
0	0x3dc4150f	0.09574329
1	0x3e3c3bea	0.1838223
2	0x3d4ff3c2	0.050769575
3	0xbd387632	-0.045034595
4	0x3e9127a2	0.2835055
5	0x3dae9156	0.085238144
6	0x3eff3548	0.49845338
7	0x3d2f67ae	0.042823486

classifier.sub_nets.2.net.1.net.3.running_var f4 [8]
0	0x3dccba30	0.0999645
1	0x3dd9cfe9	0.10635359
2	0x3d22a4a8	0.03970781
3	0x3d0fa721	0.035071496
4	0x3e48c378	0.19605815
5	0x3e54d024	0.20782524
6	0x402df138	2.7178478
7	0x3d68c623	0.056829583

classifier.sub_nets.2.net.2.net.0.weight f4 [4, 8, 5]
0	0x3bbb9521	0.0057245647
1	0x3d5eaa23	0.054361474
2	0xbda03809	-0.07823188
3	0xbd32ad2b	-0.043622177
4	0x3cab14ca	0.020883936
5	0x3de29462	0.11063458
6	0x3cc45a27	0.02396877
7	0x3d8ea643	0.06965306
8	0x3de2c1c3	0.11072113
9	0x3d9c0b3c	0.0761933
10	0xbdc6e380	-0.09711361
11	0xbccfaa0a	-0.025349636
12	0x3cf51de6	0.029921483
13	0xbd771169	-0.060319338
14	0xbd5cefb8	-0.05393955
15	0xbe99a0a7	-0.3000538
16	0xbdcf6362	-0.10126378
17	0xbc44c5e9	-0.012010076
18	0xbde115b6	-0.10990469
19	0xbe69f404	-0.22846991
20	0x3b49c220	0.0030785874
21	0x3cbf7d77	0.023375256
22	0x3c8ab8f8	0.016933903
23	0x3df55b52	0.119803086
24	0xbb3de878	-0.0028977674
25	0x3e6d73dd	0.2318873
26	0x3d4b2606	0.04959681
27	0x3dc7836c	0.097418636
28	0x3e15a27b	0.14612763
29	0x3e1c85b4	0.15285379
30	0x3cf16df1	0.02947137
31	0xbcd50944	-0.026005395
32	0xbd8f14c1	-0.0698638
33	0x3d133186	0.0359359
34	0x3e8c8f5e	0.2745313
35	0x3e6586f9	0.22414769
36	0x3e0245da	0.12721959
37	0x3da513ba	0.08060403
38	0x3d464cb7	0.048413005
39	0x3e3e7a32	0.18601301
40	0x3d1e3d3b	0.038632613
41	0x3e00fd9b	0.12596743
42	0x3c95b070	0.018272609
43	0xbdee1cbf	-0.11626577
44	0xbd3e45e4	-0.04645337
45	0xbe32e021	-0.17468311
46	0xbb93a0e6	-0.0045052646
47	0xbcbf0461	-0.023317518
48	0xbe086a56	-0.13321814
49	0xbdaa87b3	-0.08326664
50	0x3d80624a	0.06268747
51	0xbd0b36f7	-0.033987965
52	0x3db7f1f4	0.08981696
53	0xbdbb92e0	-0.091588736
54	0x3e3fda06	0.18735513
55	0x3ea1d56e	0.31608146
56	0x3e226e45	0.15862377
57	0x3dc943b3	0.09827366
58	0x3df76a79	0.12080855
59	0x3e299132	0.16559294
60	0x3b977361	0.0046219085
61	0xbe0c395e	-0.13693759
62	0x3cd1319e	0.025536355
63	0xbdf9ede4	-0.12203577
64	0x3dd4b229	0.10385544
65	0xbe8af5ca	-0.27140647
66	0xbe2e5918	-0.17026174
67	0xbdb33bd6	-0.08751647
68	0xbd546d55	-0.05186208
69	0xbd1854c1	-0.037190203
70	0xbe20feda	-0.15722218
71	0xbd819617	-0.063274555
72	0xbe0676ce	-0.13131258
73	0xbe054720	-0.13015413
74	0xbd7d8549	-0.06189469
75	0xbe40c4b6	-0.1882504
76	0xbd89ab0a	-0.06722076
77	0xbd56858d	-0.052373458
78	0xbcbc3f73	-0.022979474
79	0xbe2bbb37	-0.16770636
80	0x3e157779	0.14596356
81	0x3d0d8a89	0.034555946
82	0x3dfb4b01	0.12270165
83	0x3de7da3f	0.11320924
84	0x3dbcf141	0.09225703
85	0x3d960033	0.07324257
86	0x3da4da2f	0.08049428
87	0xbd9c9025	-0.07644681
88	0x3cf3aba4	0.02974493
89	0xbd3b69b3	-0.0457551
90	0xbe3be485	-0.18348892
91	0xbd8e8d0b	-0.069604956
92	0xbe65aa80	-0.22428322
93	0x3d379ff0	0.044830263
94	0xbe0215d4	-0.1270364
95	0xbe939322	-0.2882319
96	0xbe55bc5e	-0.20872638
97	0xbe423958	-0.18967187
98	0xbdc41b58	-0.09575528
99	0xbe516d4d	-0.20451851
100	0x3d547044	0.051864877
101	0x3cc44ab1	0.023961397
102	0x3e38566d	0.18001719
103	0x3e15e5aa	0.14638391
104	0x3e33fe05	0.1757737
105	0xbd2608ef	-0.040535863
106	0x3d2c1ecd	0.04202156
107	0xbd352263	-0.044222247
108	0xbd7c5f32	-0.061614223
109	0xbd72fe70	-0.05932468
110	0x3d5fa422	0.05459989
111	0x3dcb4aaf	0.09926354
112	0x3b8c0ca8	0.0042739697
113	0x3dd430ac	0.10360846
114	0xb9855e1b	-0.0002543785
115	0x3da9e421	0.08295465
116	0x3dc1e27e	0.09467028
117	0x3da22f6f	0.079192035
118	0x3d50fbf5	0.051021535
119	0x3d46037d	0.04834317
120	0xbe7b3ee4	-0.2453571
121	0xbe10a453	-0.14125185
122	0xbe37e64e	-0.17958948
123	0xbe8b9b09	-0.2726672
124	0xbe8a3167	-0.26990816
125	0x3d69119d	0.056901563
126	0xbd1a4498	-0.037663072
127	0x3cc29ec5	0.023757348
128	0xbd829d0b	-0.0637761
129	0x3d45f2c3	0.04832722
130	0x3e598ff2	0.21246317
131	0xbd80ae5b	-0.06283256
132	0x3d8f95a5	0.07010964
133	0xbd580926	-0.0527431
134	0x3e14b5c1	0.14522459
135	0x3defa1d3	0.117007874
136	0x3da48a95	0.08034245
137	0x3dbdbf31	0.092649825
138	0x3d6c0081	0.057617668
139	0x3e44e2cd	0.19227143
140	0xbe391ae4	-0.18076664
141	0xbe402d59	-0.18767299
142	0x3ca2eb69	0.019887643
143	0xbddbaff9	-0.107269235
144	0xbc0a9861	-0.0084591815
145	0x3d60ac82	0.054852016
146	0x3dc2808a	0.09497173
147	0xbb921fe9	-0.0044593704
148	0x3c4b3f6a	0.012405256
149	0x3d84952b	0.06473764
150	0x3d250d48	0.04029587
151	0x3e0776c2	0.13228896
152	0x3dea4e36	0.11440699
153	0x3e3a73d9	0.18208255
154	0xbd542e86	-0.05180218
155	0xbddf9c46	-0.10918479
156	0xbd38b308	-0.045092613
157	0xbdc1680c	-0.094436735
158	0xbd38ebe7	-0.04514685
159	0xbdc5abbf	-0.096518986

classifier.sub_nets.2.net.2.net.0.bias f4 [4]
0	0x3e9863db	0.29763684
1	0xbd6d0ca7	-0.057873394
2	0xbd889cfe	-0.06670569
3	0x3c6f32a8	0.01459948

classifier.sub_nets.2.net.2.net.3.weight f4 [4]
0	0x410e2880	8.884888
1	0x4152fd73	13.186877
2	0x410457e4	8.271458
3	0x4140a128	12.039345

classifier.sub_nets.2.net.2.net.3.bias f4 [4]
0	0x3f857e3d	1.042915
1	0xbf3db02f	-0.7409696
2	0x3f9b1c9c	1.2118106
3	0xbdbfdf2c	-0.093687385

classifier.sub_nets.2.net.2.net.3.running_mean f4 [4]
0	0x3ed7c9c2	0.42146116
1	0xbce296b3	-0.02765975
2	0x3d26ba66	0.040705107
3	0x3d962e2a	0.07333024

classifier.sub_nets.2.net.2.net.3.running_var f4 [4]
0	0x3de5b974	0.11217013
1	0x3c1e934c	0.009678673
2	0x3ce67d49	0.028135912
3	0x3ce4a688	0.02791144

classifier.sub_nets.2.net.5.weight f4 [13, 4]
0	0xc0061315	-2.0949147
1	0x3f88dfe7	1.069333
2	0xc0fb9f51	-7.863198
3	0x400e9f36	2.2284675
4	0x4018eeb4	2.3895693
5	0xc093e25e	-4.6213827
6	0x3f9af69f	1.2106513
7	0xc0b6fcf6	-5.718379
8	0xbfe2c645	-1.7716757
9	0x407fef7b	3.9989917
10	0x3bc417f7	0.005984302
11	0x40bbe6a2	5.8719034
12	0xc04f1f40	-3.2362823
13	0x409fd60f	4.99488
14	0xc082fbc5	-4.0932336
15	0x4076f04f	3.8584173
16	0xbf569236	-0.8381685
17	0xbf1413a6	-0.5784248
18	0xc0276138	-2.6153088
19	0x3f9e7d3f	1.2381972
20	0xc0802a2b	-4.0051475
21	0x408d9c11	4.425301
22	0xbfafb7d2	-1.3727973
23	0x3f8fdbd1	1.1238958
24	0x4036cc01	2.8562014
25	0xc0b21e27	-5.5661807
26	0x402ce20c	2.7012968
27	0x3f80064b	1.000192
28	0xbf5bc0c9	-0.8584104
29	0x4068a6b3	3.6351745
30	0x40301313	2.7511642
31	0xbfa18f46	-1.2621849
32	0x40006185	2.0059521
33	0xc011733a	-2.2726579
34	0x3fae3ed1	1.361292
35	0xbe5b2e3f	-0.2140436
36	0xbf0527bd	-0.5201376
37	0x3fe3c938	1.7795782
38	0x405b028b	3.4220302
39	0xc0b11d0e	-5.5347967
40	0x408792a9	4.236653
41	0xc09cc770	-4.8993454
42	0x402990e9	2.6494696
43	0xc04e79aa	-3.2261758
44	0x407b3a5e	3.9254375
45	0xc08137ed	-4.038077
46	0xbec9d6f0	-0.39421797
47	0xc021a3d1	-2.5256236
48	0xc0e971a5	-7.2951226
49	0x40b39657	5.612102
50	0x3f984f8e	1.1899278
51	0xc0aa9ed7	-5.3318896

classifier.sub_nets.2.net.5.bias f4 [13]
0	0xbfc4eefb	-1.5385431
1	0x3fb7e0f6	1.4365528
2	0x40004c35	2.0046513
3	0x3dfcaf91	0.12338174
4	0xbe9f896b	-0.3115953
5	0xbfc58c17	-1.5433377
6	0x3fa9d5cc	1.3268371
7	0x3f28d441	0.65948874
8	0x4016e8e7	2.3579652
9	0xbf5b583e	-0.8568152
10	0xbf48faf6	-0.78507936
11	0xbfc72c24	-1.5560346
12	0xc068c01e	-3.636726

classifier.sub_nets.3.net.0.net.0.weight f4 [8, 1, 5]
0	0xbe87ddd9	-0.26536444
1	0x3ca81f65	0.020522783
2	0x3e0558fe	0.13022229
3	0x3e0388cb	0.12845151
4	0x3e664e38	0.22490776
5	0x3e86c07a	0.26318723
6	0xbe308abb	-0.17240421
7	0x3dc2c73f	0.095106594
8	0x3e83554e	0.2565102
9	0xbe89f497	-0.2694442
10	0xbe0b0938	-0.13577735
11	0xbe9da5ec	-0.3079065
12	0x3dbdba8e	0.09264098
13	0xbe975380	-0.29555893
14	0x3eb5f3c1	0.35537532
15	0xbbebe539	-0.0071989563
16	0xbecc053a	-0.39847738
17	0xbe9724f6	-0.29520386
18	0xbe99f23a	-0.30067617
19	0xbeed9e49	-0.46409824
20	0x3e5e06b4	0.21682245
21	0xbe1dce00	-0.15410614
22	0xbdf83d52	-0.12121071
23	0x3d8fdb66	0.07024269
24	0x3d0cdb3a	0.03438876
25	0xbe740b5a	-0.23832455
26	0x3e94d544	0.2906896
27	0x3e51bdb2	0.2048252
28	0x3f007000	0.501709
29	0x3eb9e8c1	0.3631039
30	0xbe21d8f2	-0.15805414
31	0x3e75412d	0.23950644
32	0xbeaed738	-0.34148574
33	0xbe5aacb7	-0.21354948
34	0xbe1cc9b1	-0.15311314
35	0x3ea93c17	0.33053657
36	0x3e9108b7	0.2832696
37	0xbe4f99bd	-0.2027349
38	0x3e6017fc	0.2188415
39	0xbead93da	-0.33901864

classifier.sub_nets.3.net.0.net.0.bias f4 [8]
0	0x3e683842	0.2267771
1	0xbf112cf0	-0.56709194
2	0x3e32419c	0.1740784
3	0x3e5bb26b	0.2145478
4	0x3da96f7f	0.08273219
5	0x3eb20749	0.34771183
6	0x3e2373d2	0.1596215
7	0xbf08a035	-0.53369457

classifier.sub_nets.3.net.0.net.3.weight f4 [8]
0	0x3f7424f8	0.9536891
1	0x3f576fe1	0.8415509
2	0x3f8318b6	1.0241916
3	0x3f8a4768	1.0803041
4	0x3f7fe479	0.99957997
5	0x3f7c317e	0.9851302
6	0x3f4f9af4	0.81095815
7	0x3f6b50cd	0.9192017

classifier.sub_nets.3.net.0.net.3.bias f4 [8]
0	0xbe34c1a5	-0.17651995
1	0xbb96159b	-0.0045802123
2	0x3e3cd8f5	0.18442138
3	0xbd59ed23	-0.053204667
4	0xbcfa8d9f	-0.030585108
5	0xbe055b66	-0.13023147
6	0x3d4ec842	0.05048395
7	0x3dbee741	0.09321452

classifier.sub_nets.3.net.0.net.3.running_mean f4 [8]
0	0x3e7197fd	0.23593135
1	0xbde59553	-0.11210122
2	0x3e27498f	0.16336654
3	0x3e2ff889	0.17184652
4	0x3dad254a	0.08454378
5	0x3ec7f8c9	0.39056996
6	0x3e0e188f	0.13876556
7	0xbdd6032b	-0.10449823

classifier.sub_nets.3.net.0.net.3.running_var f4 [8]
0	0x3a1f3a2b	0.00060740364
1	0x374ab252	1.2081657e-05
2	0x3a2c8720	0.00065814145
3	0x3bbb3709	0.005713348
4	0x379affeb	1.8477402e-05
5	0x3c3e4424	0.011612926
6	0x3adad48a	0.0016695422
7	0x381750f9	3.6076617e-05
