mmm_experiments/models/2022-nov/low_q_high_fidelity.ckpt (torch, 727897 bytes, 1344 tensors)

classifier.sub_nets.0.net.0.net.0.weight f4 [8, 1, 5]
000000 03 1f e9 3d 6d 92 83 3e 1c 91 b8 3e de 63 42 be
       0.11382868 0.25697652 0.3604821 -0.18983409
000010 0f 81 a2 3e f6 61 66 3e 68 dc 83 be 77 51 b4 3e
       0.3173909 0.22498307 -0.25754094 0.35218403
000020 4d 6a c8 3d a8 b7 db be 60 01 e2 3e a4 64 39 bd
       0.097859 -0.42913556 0.44141674 -0.045261994
000030 20 9d 44 3e c1 6f 2f bc 46 14 bc be df e0 28 be
       0.19200563 -0.010707797 -0.36734217 -0.16492032
000040 72 f8 26 3e 2e 70 27 be f2 d2 ca be 66 be d8 bd
       0.16305712 -0.16351387 -0.39614064 -0.105831906
000050 8b 2e 51 3e ff c8 13 3d 3a 7b b7 3e ac f5 fb bd
       0.20427911 0.036080357 0.35836202 -0.123027176
000060 9c 32 d7 be b7 e8 e8 be 0d 15 fd be 11 67 7f be
       -0.420308 -0.45490047 -0.49430123 -0.2494166
000070 d1 50 09 be cd 1d ee 3d 1f ef b4 be 91 25 ad 3e
       -0.13409735 0.11626778 -0.35338685 0.33817723
000080 42 1f f8 3e 6d c0 02 be d7 6e 38 3e f3 80 91 bb
       0.48461348 -0.12768717 0.18011032 -0.004440421
000090 89 48 65 3e 7a f4 27 3e 0b 90 d6 3d 02 0b 79 be
       0.22390951 0.16401854 0.10476693 -0.24320605

classifier.sub_nets.0.net.0.net.0.bias f4 [8]
000000 b2 58 c7 3e 5b ca b2 be cd 95 91 be e4 59 96 3e
       0.38934857 -0.3492001 -0.284346 0.29365456
000010 b9 6f c0 3a de d4 2a 3c 60 e8 46 be 80 75 10 3f
       0.0014681733 0.010426728 -0.19424582 0.5642929

classifier.sub_nets.0.net.0.net.3.weight f4 [8]
000000 92 1e 84 3f 9c d0 5c 3f e7 1a 61 3f 62 17 85 3f
       1.0321829 0.8625581 0.87931675 1.0397761
000010 35 0d 85 3f ef 3a 87 3f 8a bf 70 3f e1 e5 58 3f
       1.0394655 1.056486 0.94042265 0.8472577

classifier.sub_nets.0.net.0.net.3.bias f4 [8]
000000 50 90 7e bc df 7b 2f 3d e4 0e b4 bd 1e c3 7c 3c
       -0.0155373365 0.042842742 -0.08791903 0.015427379
000010 b4 f4 68 3d d2 93 b6 3d b7 39 27 bc 5d b3 f3 3d
       0.056873992 0.08914913 -0.010206631 0.11899445

classifier.sub_nets.0.net.0.net.3.running_mean f4 [8]
000000 28 0f cd 3e 9e 1a 8f bd 16 68 66 bd bf 35 92 3e
       0.40050626 -0.06987499 -0.056251608 0.2855663
000010 ac a7 74 3b 1f 14 ae 3b d5 2d 17 bd 70 4d 11 3f
       0.0037331386 0.005312457 -0.036908943 0.56758785

classifier.sub_nets.0.net.0.net.3.running_var f4 [8]
000000 12 93 ff 3a 70 12 ce 36 1b 01 43 38 cc b5 69 3a
       0.0019498786 6.141425e-06 4.6492652e-05 0.00089153345
000010 b2 21 76 39 92 77 78 39 a2 07 82 39 bb 16 96 39
       0.0002347294 0.00023695666 0.0002480122 0.00028627165

classifier.sub_nets.0.net.1.net.0.weight f4 [8, 8, 5]
000000 8a 0f 88 3d 23 36 83 3d c0 2e fb 3c cf 98 d4 bd
       0.06643589 0.0640681 0.03066194 -0.103807084
000010 ba 23 fb bd 4a 8d 80 3e 76 62 8e 3c 45 cb 1b 3c
       -0.12262674 0.25107795 0.017380934 0.009508912
000020 3c a0 f5 bd 8d 0d f3 3c 6b 54 3a be 1a fa 0d bd
       -0.11993453 0.029669547 -0.18196265 -0.034662344
000030 d8 a2 98 bc 7b 14 9e bd 4c 16 2a be 33 4b 65 bd
       -0.018632337 -0.0771875 -0.16610068 -0.05597992
000040 aa 28 98 bd 8f 4b b9 3c 32 34 0c 3d 9b bd 69 3b
       -0.07429631 0.022619037 0.034229465 0.0035665992
000050 f8 8a 05 be e6 41 1c be a2 17 44 be 10 a6 31 be
       -0.13041294 -0.15259513 -0.1914964 -0.17348504
000060 9e 41 37 bd a7 1d 72 3e 38 44 2f 3e a5 3f a7 3c
       -0.04474031 0.23644124 0.17115867 0.02041609
000070 5e 5f 81 be c7 bb 47 bd f1 26 ab bc 2f 49 65 bd
       -0.25268072 -0.048763063 -0.020892592 -0.055977996
000080 64 f5 25 bd ac 41 f4 bc 9c cb f7 3c 5d 1d b7 bd
       -0.040517226 -0.029816471 0.030248456 -0.089411475
000090 a8 6f da 3d e9 d9 c6 bd e4 83 8e 3d 61 78 fa bb
       0.10665828 -0.09709532 0.0695875 -0.007643745
0000a0 83 97 52 bd f7 fd 13 3e a0 a5 59 3d c0 db 0b be
       -0.051414024 0.14452349 0.053136468 -0.13658047
0000b0 26 90 73 bd ac 3f a3 3d 75 97 c6 3d 55 cf cc bc
       -0.059463643 0.07971129 0.09696857 -0.025001207
0000c0 f4 41 9d bd 48 da 23 3d ca 6c 0c 3d 89 af bf 3d
       -0.07678595 0.04000309 0.034283437 0.093596525
0000d0 d7 75 c9 3d cb 30 88 3d 7f 0a ce 3d 0c 09 c9 bd
       0.09836929 0.066499315 0.10060596 -0.09816179
0000e0 a4 c5 91 bd d7 27 05 3e a5 19 a2 3d 6c a8 0d 3e
       -0.07117775 0.13003479 0.079150476 0.13833779
0000f0 a1 46 28 be cb e7 5a be e6 bb 15 be d2 8c a4 bd
       -0.16433193 -0.21377485 -0.14622459 -0.08034672
000100 c1 23 12 bd 61 75 ec 3d d1 09 a7 3d 59 7a 00 bd
       -0.03567863 0.11545826 0.08156169 -0.03136668
000110 a6 7a 1f be d3 51 a5 bd be 6a 5e 3c f9 fc d2 bc
       -0.1557413 -0.08072247 0.013575254 -0.025755392
000120 6e 0f 49 bd 8b ca 74 bd f1 c1 c9 3c 9d be 3f 3e
       -0.04908698 -0.059763473 0.024628611 0.18725057
000130 60 e8 6a bd 9d c1 7e bd 5c 94 2b 3d 91 81 12 bd
       -0.057350516 -0.062196363 0.041889533 -0.035768095
000140 d0 6d 03 3e 1f 1c 07 3e 7f b8 2c 3e 72 3b e4 3d
       0.12834859 0.13194321 0.16867255 0.11144151
000150 5f 49 22 3e e2 f8 3b bc 0f 2b df bd 80 bb 0e be
       0.15848301 -0.0114729125 -0.10896885 -0.13938713
000160 dd 6b 3d 3d 1a 35 12 3e 73 38 5b 3d c4 20 15 3d
       0.046245445 0.14278069 0.05352063 0.0364082
000170 26 82 f3 3b f5 ca 13 3d 64 75 43 bd 19 2f 4e bc
       0.0074312864 0.036082227 -0.047719374 -0.012584471
000180 db 71 bd bd 7c 42 9d bd 9d d8 ac 3c fc 4e 3c 3d
       -0.09250232 -0.076786965 0.021099383 0.045973763
000190 91 be da bd ad 0f 3b 3e cb b6 09 3e c2 96 7a bd
       -0.10680879 0.18267699 0.13448636 -0.06117893
0001a0 21 80 9b bd 41 94 b0 3a 4a 2f ce bd cc 6b 31 be
       -0.07592798 0.0013471917 -0.100676134 -0.17326277
0001b0 3a c3 3b 3d e8 ab 65 3e 19 a6 c5 3c 86 6a 7c bd
       0.04584048 0.22428858 0.024127053 -0.061625026
0001c0 7c 40 15 bd bc 42 13 3d 82 87 b0 bd 89 9c 61 bd
       -0.03643845 0.035952315 -0.08619596 -0.055080924
0001d0 dd 5d c6 bd 82 6e 92 bc e8 02 8a bd 1e 83 2f 3e
       -0.09685872 -0.01787496 -0.067388356 0.17139861
0001e0 f6 e1 c4 3d 9c af e4 3d 4b 37 28 bd d9 5a 87 3d
       0.09613411 0.11166307 -0.041068356 0.06609125
0001f0 1a 36 a8 bc 0c 33 63 3d 69 5a b9 bd de db 61 be
       -0.02053361 0.055468604 -0.090504475 -0.22056529
000200 f9 55 a2 3d 2e ed 76 bd ed 9a cd bd 57 9d ed bd
       0.07926554 -0.060284786 -0.100393154 -0.11602276
000210 0f 90 f0 bd f9 68 36 bd e9 9e ba bd da 13 1d be
       -0.11746227 -0.044533703 -0.09112341 -0.15339604
000220 ae c1 83 bd 5b 1c 33 be fa d6 b1 bb bf 36 84 3c
       -0.06433426 -0.17491286 -0.0054272385 0.016139386
000230 c8 25 51 3d ff d1 1f 3e 13 5f e6 3d a9 21 02 3e
       0.05106142 0.15607451 0.11248603 0.12708153
000240 ad 55 26 3e 12 34 1d bd b1 0e ee 3b be 63 dc 3d
       0.1624362 -0.038379736 0.007264935 0.10761212
000250 80 a8 35 3a 25 99 9c bd 8e 04 b9 bc 46 46 3c bb
       0.00069297105 -0.076463975 -0.02258518 -0.002872841
000260 3b c0 0b be a4 5c da ba 68 b1 8f bd 05 57 f5 bd
       -0.13647549 -0.0016659689 -0.070162594 -0.11979488
000270 6b a0 4b bd 8d 4d 0b 3e e8 53 04 bb d5 0d 4c 3d
       -0.049713533 0.13603802 -0.0020191614 0.04981788
000280 5d 04 3f bd 71 f1 3b bd 50 99 6b bd df eb 8c be
       -0.04663502 -0.045884553 -0.057519257 -0.27523705
000290 74 55 86 be a8 f5 8e 3c f1 4b 0d be 4a 7b 9d 3d
       -0.2623707 0.017451122 -0.137985 0.07689531
0002a0 92 3b 4a 3e 45 4e 74 3e 86 fe 91 bc ad be 17 3e
       0.19749287 0.23857982 -0.017821562 0.14818831
0002b0 0c 0f f5 3c 20 32 8a bd cd f2 fe bc 66 9b 38 3d
       0.029914401 -0.06747842 -0.031121636 0.045070074
0002c0 24 f4 d7 bb 0d 49 1c 3e 09 72 25 3a c4 57 9f 3e
       -0.006590383 0.15262242 0.0006311243 0.31121647
0002d0 fb c3 5e be 85 97 16 be 6e 76 3d be 1d a5 92 bc
       -0.21754448 -0.14706238 -0.18502209 -0.017900998
0002e0 3c bd a9 3d 7b f3 81 bd bb a2 91 bd 48 df 61 be
       0.08288047 -0.06345268 -0.071111165 -0.22057831
0002f0 67 2c 1c bc 3f a9 79 bc ad 83 3c 3d a7 e3 58 3d
       -0.009532071 -0.015238105 0.046024013 0.05295148
000300 2b e1 b8 3c 05 07 a4 3c dd a2 a9 3c 16 77 3b 3e
       0.022568306 0.020022878 0.020707542 0.18307146
000310 df c6 9e bd ec 82 2a 3d 90 31 98 bb 6b fd a9 3d
       -0.077527754 0.041628763 -0.00464458 0.08300289
000320 80 45 70 3d ef 4a 3a be dc ea df bd 01 61 21 bd
       0.05866003 -0.18192647 -0.10933468 -0.03939915
000330 96 7f ac bd 75 80 b4 3d 9e a2 0e 3e 1c 0b 50 3e
       -0.084227726 0.08813564 0.13929221 0.20316738
000340 10 ad 89 3d ab ee e0 3d 82 4e 7a bd 8e b5 f6 bb
       0.06722462 0.10983022 -0.061110027 -0.007528967
000350 0d a7 75 3c f8 44 f1 bd d5 47 fb bd 94 4d 69 3d
       0.014993441 -0.11780733 -0.1226956 0.05695875
000360 7a 11 21 bd 1f e0 80 3e 9a 46 64 3e 36 14 8d 3d
       -0.039323308 0.2517099 0.22292557 0.068886206
000370 0a 99 1b be 94 2c 5d 3d d7 46 67 3d 57 6a 58 bc
       -0.15195099 0.05399759 0.056464043 -0.013208947
000380 f8 29 93 bd 2d ce d6 3b 6d af df 3d 79 1a 70 3d
       -0.07185739 0.00655534 0.10922132 0.058618996
000390 21 d3 92 3c 2e f9 15 bd 59 00 89 bd df 6f 07 be
       0.01792294 -0.03661459 -0.066895194 -0.13226269
0003a0 71 60 79 be aa fc 85 be 58 69 a0 be 96 f0 96 3d
       -0.24353196 -0.2616933 -0.3133037 0.07370107
0003b0 66 21 5e 3d 42 ea 1d 3e 1a 76 c6 3c 18 74 1e 3e
       0.05423107 0.15421394 0.024226237 0.15473974
0003c0 99 72 d8 3c 9a ae e0 3c 7b c5 08 3e ef 7e d7 3d
       0.026421832 0.027427007 0.13356583 0.105222575
0003d0 fa 96 1f bd 02 82 21 bd f8 bb e2 bd 7b ee dd bd
       -0.03896234 -0.039430626 -0.110710084 -0.10836502
0003e0 2c 30 ac bc a4 e0 e6 bd 05 10 97 bd dc a2 5a bd
       -0.021019064 -0.112733155 -0.07376102 -0.05337797
0003f0 3a 85 43 3b d1 e8 98 3c f1 a8 b1 bd 48 44 ab 3d
       0.0029834048 0.018665703 -0.08674801 0.08362633

classifier.sub_nets.0.net.1.net.0.bias f4 [8]
000000 82 54 16 3d da 80 31 bd 19 64 94 bb b9 16 0a 3e
       0.036701687 -0.043335773 -0.004528534 0.1348523
000010 5f e0 06 be e9 84 59 3d a3 d2 33 be 05 60 86 3b
       -0.13171528 0.05310527 -0.1756082 0.004100802

classifier.sub_nets.0.net.1.net.3.weight f4 [8]
000000 c6 2c 5d 3f 12 60 8f 3f 9c 6d 78 3f 4a b0 77 3f
       0.86396444 1.1201193 0.9704225 0.9675337
000010 92 58 6d 3f 08 c0 6a 3f 7f 6c 89 3f c1 9e 6e 3f
       0.9271327 0.91699266 1.0736235 0.9321099

classifier.sub_nets.0.net.1.net.3.bias f4 [8]
000000 01 84 aa 3b 82 fc 4a bd 68 11 45 3d 3b 80 53 be
       0.0052037244 -0.049557216 0.048112303 -0.20654385
000010 21 5a 74 3c 12 2c c5 3d 90 ff 67 be 23 51 fc 3d
       0.0149140665 0.09627546 -0.22656083 0.12320163

classifier.sub_nets.0.net.1.net.3.running_mean f4 [8]
000000 10 fe 38 3e ae 19 92 bc 3b c7 ff 3d 42 52 4f 3e
       0.18065667 -0.01783451 0.12489172 0.20246223
000010 d0 9d 83 3c ea 23 cb 3e 56 30 45 3d 60 44 54 3d
       0.016066462 0.39675838 0.0481418 0.05182302

classifier.sub_nets.0.net.1.net.3.running_var f4 [8]
000000 b9 1f 6a 3d 8e 24 95 3b 08 4c 19 3f a9 4a e0 3e
       0.05715916 0.004551477 0.5988164 0.4380696
000010 78 e7 f0 3c 45 ab 45 3e 68 c9 24 3e 36 02 fb 3d
       0.029407248 0.19303615 0.16092455 0.12256281

classifier.sub_nets.0.net.2.net.0.weight f4 [4, 8, 5]
000000 ee 50 15 be 0b cc ab bd a4 a2 74 bd a2 5d f2 bc
       -0.14581653 -0.083885275 -0.05972542 -0.029585663
000010 62 36 be bc ee 0b 48 3e d1 b9 48 3e 3b ed 1b 3e
       -0.023219291 0.19535801 0.19602133 0.15227215
000020 12 0c 10 3e 1a 37 f5 3d 55 5a b0 bd 24 54 b8 b9
       0.14067104 0.119734004 -0.086109795 -0.00035157904
000030 c7 28 23 bd 58 e0 f9 bc 2c cb c9 bd b8 a7 49 be
       -0.03983381 -0.030502483 -0.09853205 -0.19692886
000040 2c 85 1f 3d 8c 66 55 bd 69 19 c4 bd 5f 8a 1b 3e
       0.038945362 -0.05209975 -0.09575159 0.15189503
000050 d3 9d 6e 3b 75 a2 1b be 1b 79 b4 bd 63 f2 ee bd
       0.0036409989 -0.15198691 -0.088121615 -0.11667325
000060 13 b4 e9 bd e6 ca ed bd a0 44 2d 3c 3a 6e 88 bd
       -0.114112996 -0.116109654 0.0105754435 -0.06661649
000070 bf 01 a8 3c 9e 7c 13 3e 05 66 d9 3c 4f 8b a3 3d
       0.020508645 0.14403006 0.026537905 0.079855554
000080 79 c6 bd 3d c6 1e 1f 3c 14 fd b5 3c 78 98 bd 3d
       0.09266371 0.009711927 0.022215404 0.09257597
000090 3e 7a 0e 3d ea b6 34 3d 39 33 b6 3d ab 85 df 3d
       0.034784548 0.044119753 0.08896489 0.10914167
0000a0 6e 97 0b 3e 65 29 f5 3c fb bc 5d bd 18 f8 11 3d
       0.13631985 0.029926965 -0.054135304 0.03563699
0000b0 6e 18 a6 3d a8 28 7a be bd 9e 62 be 5f 25 1b be
       0.08110128 -0.24429572 -0.22130866 -0.15150975
0000c0 5e 06 60 be ad 03 55 be d5 61 06 3e 01 8a be 3b
       -0.21877429 -0.20802183 0.13123257 0.005814791
0000d0 0a 4d 4d 3d e7 c8 9d bd df ff fc bc 27 c1 d2 3d
       0.0501223 -0.07704335 -0.030883728 0.10290747
0000e0 57 39 1d be 0e a8 22 bd 96 8b 9e 3d b1 68 d2 bd
       -0.15353905 -0.03971105 0.07741468 -0.102738746
0000f0 bb fd 4f bd 51 0c e0 3d 7e ce fe 3a 30 ce d5 3d
       -0.050779086 0.10939849 0.0019440202 0.10439718
000100 2f ab 49 3e 55 a9 8a 3d 38 da ac 3d 96 51 0d be
       0.19694208 0.06770579 0.084400594 -0.13800654
000110 4f 55 50 3c 4f c1 0b be 44 31 16 be dc 4d f7 bd
       0.012715652 -0.1364796 -0.14667231 -0.12075397
000120 0a 1b b9 bd ee 2f 70 bd 06 39 b6 bd 12 fe d9 bd
       -0.090383604 -0.05863946 -0.08897595 -0.10644163
000130 6d 2e 14 bd e7 4a 80 bd 7b 34 c5 bd be be 4d bd
       -0.036177088 -0.062642865 -0.096291505 -0.050230734
000140 66 72 97 3c 81 d3 54 3c 46 36 f5 bd d4 f9 08 3c
       0.018487167 0.01298988 -0.119732425 0.008360345
000150 5e d4 87 3b 03 88 2c bd 93 9b 05 bd c8 25 29 bc
       0.004145189 -0.0421219 -0.03261907 -0.010323949
000160 2a 82 1b bd 29 ff 2d 3b f6 e1 57 3d fb 59 75 3e
       -0.03796593 0.0026549792 0.052705728 0.23960106
000170 bc a9 c8 bc ce 63 1f 3d 72 2b 41 bc 3d 51 19 be
       -0.024494998 0.03891354 -0.011790143 -0.14972396
000180 cc 15 bf 3d 4f b7 48 bc 5a b0 dd bd 29 4d ae 3d
       0.09330329 -0.012250735 -0.10824652 0.08510811
000190 5e 32 1b 3c 39 66 70 bd 4f a2 19 bd d7 fe ba bd
       0.009472458 -0.058691237 -0.037508305 -0.09130638
0001a0 1c ab 4d 3d 68 21 ec 3d 3c 43 fd 3c 84 3f 50 bd
       0.05021201 0.11529809 0.030915849 -0.050841823
0001b0 bc 55 37 bd 6a ac 69 bb 5b 63 a1 be 76 62 8d be
       -0.044759497 -0.0035655745 -0.31521115 -0.27614182
0001c0 85 70 a0 bd 33 4f 5d be b6 06 74 be 1b f4 32 3e
       -0.078339614 -0.21612243 -0.23830685 0.17475931
0001d0 ae a5 3d 3e 69 1e 55 3d d5 85 c8 3d ff 4f 62 3e
       0.18520233 0.052030955 0.097911514 0.22100829
0001e0 4a 73 24 3e 19 01 68 3d b5 30 8a 3c 1b 49 64 bd
       0.16059604 0.05664167 0.016868928 -0.05573378
0001f0 27 10 59 3d 73 b4 70 be 56 b0 74 be c1 82 70 be
       0.05299392 -0.23506336 -0.23895392 -0.23487379
000200 08 7b 09 be 2d ad 4b be 34 7c 49 3e 9b 70 64 bd
       -0.13425839 -0.1989028 0.19676286 -0.05577145
000210 b6 b2 55 3d a8 20 b5 bd ab cf ca bc 96 17 0b 3d
       0.052172385 -0.08844119 -0.024757227 0.03395804
000220 ee db 18 be 76 1d a5 bd 94 34 15 bd b8 cf fd 3c
       -0.14927647 -0.0806226 -0.036427096 0.030982837
000230 8b f6 11 bd 90 50 74 3d 7a ae fe 3d 97 55 b0 3d
       -0.035635512 0.059647143 0.124356225 0.08610075
000240 43 07 e6 3d 89 08 8a bd 6d 64 99 3d 85 56 05 3b
       0.11231854 -0.06739909 0.07489858 0.002034576
000250 65 62 bf bd bc 53 3f bd 4c 22 d4 bd 26 ab 97 bd
       -0.09344939 -0.046710715 -0.10358104 -0.07405691
000260 9d cb ac bd f9 c7 49 3c fc 55 29 be 74 c9 2e be
       -0.08437274 0.012315744 -0.16536707 -0.17069036
000270 30 b2 5d bd 9b 66 e6 bd 0f d9 9e bd 1f 1a e8 bc
       -0.05412501 -0.11250039 -0.077562444 -0.028332768

classifier.sub_nets.0.net.2.net.0.bias f4 [4]
000000 33 c9 ef 3c d7 5d fd 3c 09 f8 76 3f 80 f7 84 3d
       0.029270744 0.030928535 0.9647222 0.064925194

classifier.sub_nets.0.net.2.net.3.weight f4 [4]
000000 1a b8 ff 40 2a 4e 31 41 25 a7 4a 41 87 f0 2a 41
       7.9912233 11.081583 12.665807 10.6837225

classifier.sub_nets.0.net.2.net.3.bias f4 [4]
000000 f8 92 b1 bf 61 82 aa bc 7b bc ce be c3 98 02 bf
       -1.3872976 -0.020814123 -0.40378174 -0.51014346

classifier.sub_nets.0.net.2.net.3.running_mean f4 [4]
000000 b2 26 e5 3c 9c 5b 3c 3e 6d 5e ad 3f ac 12 4e 3e
       0.027972553 0.18394321 1.3544441 0.2012431

classifier.sub_nets.0.net.2.net.3.running_var f4 [4]
000000 61 fb d3 3b 5d 17 50 3c f6 27 97 3d 7c 37 59 3c
       0.0064691757 0.012700883 0.07380669 0.013257857

classifier.sub_nets.0.net.5.weight f4 [13, 4]
000000 58 e0 55 bf 2f dd 14 40 ce 3d db bf c2 f5 44 40
       -0.83545446 2.326 -1.7128236 3.0774999
000010 7d 65 98 3f 35 bf a7 c0 83 b7 9f c0 e8 55 87 c0
       1.1905972 -5.2420907 -4.9911513 -4.2292366
000020 46 9e 50 3f c3 16 88 3f f0 2d 3b 3f 60 39 36 3f
       0.81491506 1.0631946 0.7311697 0.711813
000030 1f 8b 25 bf 68 1d 21 40 0f 5d 98 c0 5b e2 3b 40
       -0.64665407 2.5174198 -4.7613597 2.9356906
000040 a1 1e 27 3e eb 24 b6 c0 c9 46 94 3f e7 e0 da c0
       0.16320278 -5.6920066 1.1584102 -6.839954
000050 b9 7e 38 bf e4 fa c2 3f 33 90 e3 40 b3 8a df 3f
       -0.72068363 1.5232816 7.1113524 1.7464203
000060 0b e4 63 bf 93 ba 18 40 6e 5b 49 c0 ce f9 43 40
       -0.8901984 2.3863876 -3.1462054 3.0621219
000070 e2 43 6a bf f5 7d ad 3f 41 5e 55 40 43 bf b7 3f
       -0.9150983 1.3554064 3.3338778 1.4355243
000080 a8 4b c6 bf 62 d8 25 3f fb 76 f7 3f 2f f5 a1 bd
       -1.5491838 0.647833 1.9333185 -0.07908093
000090 e0 53 2d 40 fe 78 8b c0 af b9 5b 40 42 66 5b c0
       2.7082443 -4.3585196 3.4332082 -3.4281163
0000a0 bb ee 44 c0 7d 2a 34 40 20 9f a6 c0 9c 2a 1f 40
       -3.077071 2.8150933 -5.2069244 2.4869757
0000b0 20 12 9a 40 dd 70 26 c0 e8 1c 98 c0 24 89 0b c0
       4.8147125 -2.6006386 -4.7535286 -2.1802454
0000c0 c6 d7 c5 40 c2 a4 4c c0 5b db 84 40 0f 3d 17 c0
       6.1825895 -3.197556 4.151777 -2.3631017

classifier.sub_nets.0.net.5.bias f4 [13]
000000 46 80 03 c0 6d 98 7a 3f c4 3c f3 3f 22 a1 ee 3e
       -2.0547042 0.97888833 1.9002919 0.4660731
000010 07 11 a5 3f 9f 49 ca bf 23 f2 a8 be 2d a9 01 40
       1.2895821 -1.5803717 -0.32997236 2.0259507
000020 02 3f 1d 40 ed e6 e7 bd ce 19 c0 3e 55 2d 10 c0
       2.4569707 -0.113233425 0.37519687 -2.2527668
000030 9f a4 12 c0
       -2.2912977

classifier.sub_nets.1.net.0.net.0.weight f4 [8, 1, 5]
000000 ec 2a c9 be c0 40 07 be ef 27 a0 3c b2 f7 c5 bd
       -0.3929056 -0.13208294 0.019550292 -0.09666385
000010 18 46 ee 3e bc 3f 05 3e af c1 ba be e5 79 84 be
       0.46537852 0.13012594 -0.36475894 -0.25874248
000020 b5 06 83 3e 2d 68 ad 3e fa 1a df be fd 7c 4a 3e
       0.25591055 0.33868542 -0.4357527 0.19774242
000030 04 65 98 3e 5f 22 5b 3e 0d 6d 23 3c 52 90 c3 be
       0.2976457 0.2139983 0.00997473 -0.38196045
000040 47 6b 94 3d ed cc c2 3e dc 22 43 3e 4f 0a 0b be
       0.07247024 0.3804697 0.19056267 -0.13578151
000050 02 08 3c be 0d 08 fe bc e7 2e 90 bd 99 4d 62 be
       -0.1836243 -0.031009698 -0.07040196 -0.22099914
000060 65 05 e5 3e 6d ee f9 3e 43 20 03 3f 9a b0 72 be
       0.44730678 0.48814717 0.512211 -0.2370018
000070 89 30 b4 bd 62 f7 94 be 4d f9 cb 3d 46 d6 39 3e
       -0.0879832 -0.29094988 0.0995966 0.18148145
000080 2c fb 30 bd a2 3c 1f be 01 e5 b1 3e e9 ef 12 3f
       -0.043208286 -0.15550473 0.3474503 0.57397324
000090 98 b6 0a 3e 3e 60 b4 be 07 c1 b8 3d d7 2e ac 3d
       0.13546216 -0.35229677 0.09021192 0.084073715

classifier.sub_nets.1.net.0.net.0.bias f4 [8]
000000 45 16 47 bb c3 86 70 3e ef c6 5a bc ce 99 8c 3e
       -0.0030378264 0.23488908 -0.0133530935 0.27461094
000010 46 24 be 3d 4a 55 79 bc 45 67 a0 be 6b 9c c7 3e
       0.09284262 -0.015218088 -0.31328788 0.38986525

classifier.sub_nets.1.net.0.net.3.weight f4 [8]
000000 bd 07 9d 3f ad 27 7f 3f 60 18 86 3f 0f 5d 81 3f
       1.2267987 0.99669915 1.0476189 1.0106524
000010 86 03 7b 3f 61 af 88 3f 43 9c 78 3f 6f db 7d 3f
       0.9805225 1.0678521 0.97113436 0.99162954

classifier.sub_nets.1.net.0.net.3.bias f4 [8]
000000 8f 89 a5 3d ff 68 13 bd c8 13 2c 3d e7 c2 c4 3d
       0.08082878 -0.035988804 0.042011052 0.09607487
000010 d5 bd 44 bd bc 18 01 3d 32 43 62 bc 1d 36 e5 bd
       -0.0480326 0.03151773 -0.013809966 -0.11191962

classifier.sub_nets.1.net.0.net.3.running_mean f4 [8]
000000 eb df b2 39 8f f1 71 3e 02 ae 69 39 ea 6a 8d 3e
       0.00034117638 0.23627304 0.00022285435 0.2762063
000010 51 97 bc 3d 31 03 d5 3a f6 23 7c bd 98 fd ca 3e
       0.09208549 0.0016251561 -0.061557733 0.39646602

classifier.sub_nets.1.net.0.net.3.running_var f4 [8]
000000 6c 3d 2b 39 52 84 81 39 ad 16 cd 39 5a 75 5b 39
       0.00016330712 0.00024703384 0.00039117542 0.00020929184
000010 7b fc 2a 39 92 80 80 3a 7a 28 a3 37 a3 18 56 3a
       0.0001630652 0.0009803942 1.9449963e-05 0.00081671233

classifier.sub_nets.1.net.1.net.0.weight f4 [8, 8, 5]
000000 b9 9d 6b bd 76 04 04 3c d1 c2 99 3e 04 e4 bd 3c
       -0.057523463 0.008057704 0.30031446 0.023180015
000010 ba 57 d0 3d 04 34 fa ba e1 07 7d 3d bb 63 18 be
       0.101729825 -0.0019088988 0.061775092 -0.14881794
000020 47 f7 86 bd 7f f5 63 3d 03 2c fd 3c fd a6 b1 3d
       -0.06590133 0.055654045 0.030904775 0.086744286
000030 1b 91 4d 3d 54 c2 d9 3d 0e 8f 1e 3e ca 3e eb 3b
       0.05018721 0.10632768 0.15484259 0.007179116
000040 02 5e b1 3d 9e 6d 1b 3e de 86 c5 bd 5b e0 13 be
       0.08660509 0.15178534 -0.096448645 -0.14441054
000050 78 30 5e 3d 52 a8 0f 3e 05 5a ed 3b 02 0a 35 3d
       0.054245442 0.14029053 0.007243397 0.044198997
000060 e1 94 6f 3e a2 bb b9 3d fd 70 aa bb df 8e 48 bd
       0.23396637 0.09068991 -0.0052014575 -0.048964377
000070 7a 78 68 bc d4 c3 21 3c 48 d2 e5 3d 56 6f b8 bd
       -0.01418888 0.009873349 0.112217486 -0.09005611
000080 62 bc 1c bc a5 1b 31 3d 9f 69 76 bd 82 2f 59 3e
       -0.009566398 0.043239255 -0.060159322 0.21209529
000090 d5 dd 46 bd 6a 6b 8d bc e4 9b 08 3d 5d 71 37 bb
       -0.0485514 -0.017263133 0.033351794 -0.0027991154
0000a0 2e cb bb be 65 ce 5e be 3c 44 13 be 5b b2 ac bd
       -0.3667845 -0.21758421 -0.14381498 -0.08432456
0000b0 1f 29 8d 3d aa 8d a6 bc 25 d0 1e 3d 89 da eb 3c
       0.06892609 -0.020331223 0.03877272 0.02879073
0000c0 ba 02 1f bd f7 95 89 3e 4c 55 50 bc 63 24 4e be
       -0.03882096 0.26872227 -0.012715649 -0.20131068
0000d0 b1 b6 bc 3c 2c 24 d6 3c 7c 4f a2 3d 4c b9 2d 3e
       0.023036333 0.026140295 0.07925317 0.16965216
0000e0 e9 e1 e6 3d fe c3 23 bb 8c 95 42 3c c8 76 fa 3b
       0.11273558 -0.0024988647 0.011876475 0.0076435544
0000f0 f9 a5 80 3c 47 c7 a9 3d 0f e9 9b 3d 78 71 52 3d
       0.015704142 0.08289962 0.07612812 0.051377743
000100 f8 4e aa 3d 8f 31 3a bd dd 97 f6 3d 46 bd dc bb
       0.08315843 -0.04545742 0.12040684 -0.0067364303
000110 1b 22 01 be a4 ac 0a bd 4e 56 b2 bd 02 07 48 bc
       -0.12610666 -0.03385605 -0.087078676 -0.012208702
000120 ed f5 0b 3d 5d b9 12 bd 7c 7f c2 3d 2f 3a 52 be
       0.03417008 -0.035821307 0.09496972 -0.20530008
000130 35 f7 07 bd b6 90 7c bd 62 d1 99 3d da cc 15 3d
       -0.03319474 -0.061661445 0.0751064 0.036572315
000140 d5 4c 54 be 78 6a 76 be a9 e5 a4 bd f2 e5 51 bd
       -0.20732434 -0.24064052 -0.08051617 -0.051244684
000150 53 5f 9b 3e 48 d6 6d 3d ca 5c 6c 3d c1 5e b3 3d
       0.30346164 0.058065683 0.057705678 0.08758307
000160 bc 51 1e bc a4 3a 32 3d 74 4d 14 3d 2b 9f 90 bd
       -0.009663042 0.043512955 0.036206678 -0.07061609
000170 9a 5b 93 bd 29 5e 22 3d c7 4a 17 3e 41 44 95 3d
       -0.07195206 0.03964058 0.14774619 0.07288409
000180 1d 6a 56 3d e0 05 29 3d 9c 31 1b 3d 53 00 84 bd
       0.05234729 0.04126537 0.037889108 -0.06445374
000190 8c f3 6f 3d 81 13 13 3e aa f2 e9 3d 8e 85 63 bd
       0.058581874 0.14362909 0.114232376 -0.05554729
0001a0 a6 ea dd bd c1 f9 97 bc 91 89 2c 3e c4 bf 32 bc
       -0.10835771 -0.01855171 0.16849352 -0.010909978
0001b0 07 a5 be 3d 12 8b f4 3d 7e 75 0a be df 0d 9d bd
       0.0930882 0.11940588 -0.13521382 -0.07668661
0001c0 6a b6 6c bd f3 65 cb 3a f1 b0 90 bd 7a 0d 2f bd
       -0.05779115 0.0015518054 -0.07064999 -0.04273746
0001d0 d1 17 1a bd cc 1d 83 bd ee 1c bb 3d 1b 33 d1 3d
       -0.03762037 -0.06402168 0.09136377 0.10214826
0001e0 01 2e 39 3e 5c 6f 36 3e cf 49 1d 3e 89 50 b6 bd
       0.18083955 0.17815918 0.15360187 -0.089020796
0001f0 08 1d 8d be 0a 46 02 3d 5d 86 be bc 1d b0 c9 bc
       -0.27561212 0.031805076 -0.023257429 -0.02462011
000200 55 e4 2f be b7 f8 fd bd 21 11 b8 3d 0f cf ac 3d
       -0.17176946 -0.12400954 0.08987642 0.08437931
000210 4e d9 a9 bc 3f e6 15 3d 59 b1 26 3e 6c 89 08 be
       -0.020733502 0.036596533 0.1627859 -0.13333672
000220 c5 08 c8 3d e6 5c a8 bd 20 53 10 be de ad 0b be
       0.09767298 -0.08220844 -0.1409421 -0.13640544
000230 23 fe 33 bd 7c d6 20 be 2a 30 22 be 45 7f a7 bd
       -0.043943536 -0.1570682 -0.15838686 -0.081785716
000240 47 f3 9a bd 2b 26 7d 3d 49 0c e4 3c 04 6c d0 bd
       -0.07565933 0.061803978 0.02783789 -0.10176852
000250 e3 39 b9 bd 56 95 fe bd fb 00 e1 3d 3c 7d 40 bc
       -0.09044244 -0.12430827 0.10986515 -0.011748608
000260 44 72 86 3d 99 9a b1 bc ac c5 b9 3d 4c a1 59 bd
       0.06564763 -0.021680163 0.09070906 -0.05313234
000270 2c 62 1f 3e 74 a6 6a bd 04 9d e3 3d af c9 45 be
       0.15564793 -0.05728765 0.11113933 -0.19315217
000280 28 a5 94 bc d9 89 0d be 5f 3f 62 be b9 2f 04 be
       -0.018145159 -0.13822116 -0.22094487 -0.1290883
000290 5e 31 17 bd 7f ab 83 3d 34 b7 bb bd d0 3f 18 3d
       -0.036912315 0.06429195 -0.091658026 0.03717023
0002a0 f5 1b 06 3e 9f 3b 23 bd a9 de 8e bd c2 24 bf bd
       0.13096602 -0.03985178 -0.06976063 -0.09333183
0002b0 39 41 eb bd a1 d0 b3 bd 3f b6 49 be 1a a4 f4 bd
       -0.114870496 -0.08780027 -0.19698428 -0.119453624
0002c0 dc a3 92 3d 53 01 a5 3d 47 3c 03 3e 51 15 d5 3d
       0.0716016 0.08056893 0.12815963 0.104044564
0002d0 23 cc 49 bc 3a e2 47 3d 94 d4 28 3e 2a 2c a5 3d
       -0.012316736 0.04879973 0.16487342 0.08065064
0002e0 72 ab ff bc d5 c7 ce 3d 1d 75 43 be bb ad b8 bd
       -0.031209681 0.10096709 -0.19087644 -0.090175115
0002f0 ca 52 f9 bd c5 84 91 3d cd 7f e8 ba 57 b6 40 bd
       -0.12173994 0.07105402 -0.0017738283 -0.047048893
000300 cd c3 5b 3c c0 74 99 3c d1 5e 57 3e 05 6b 04 be
       0.013413382 0.018732429 0.21032263 -0.1293145
000310 2b a2 c2 3d fc 8b f0 bd 0c 1b 4f 3d 71 cd 75 bd
       0.09503587 -0.1174545 0.050562903 -0.060010377
000320 f3 ab 8c bd ce f6 19 be 1e 83 ba be 70 d0 7b bd
       -0.06868734 -0.15035555 -0.3642816 -0.06147808
000330 87 6a 9d bd 4f 67 9b bc 3f 2c 85 3d 91 19 3f 3e
       -0.07686334 -0.01897016 0.0650258 0.18662097
000340 5c 67 0c 3e 29 3e b0 bd 13 7d f7 3d 7f 4c 25 3d
       0.13711303 -0.08605606 0.12084403 0.040356155
000350 d5 c8 0f be cb 58 51 be f5 2b 03 be 04 8e 29 bc
       -0.14041455 -0.20444028 -0.12809737 -0.010348801
000360 65 81 66 bc 5d 4f ce 3d cf 7d 46 3e 99 06 51 bd
       -0.014068936 0.10073731 0.1938393 -0.051031683
000370 8b ac 1e bd 46 de 24 3d db 7d 76 3e a5 7e 98 3d
       -0.03873877 0.04025104 0.24071448 0.074460305
000380 e6 ab 44 bd 21 3b 9e bd da 01 54 3d a2 c8 e2 3d
       -0.048015498 -0.07726122 0.05175958 0.11073424
000390 28 b8 4e bd 29 5a b2 bd 29 e0 12 be 82 0c 1e be
       -0.050468594 -0.08708603 -0.14343323 -0.15434459
0003a0 b7 25 0e bd cc ff 96 3d cd 0d 5b bd a2 a3 47 3d
       -0.034703936 0.07373008 -0.05347996 0.048740037
0003b0 62 c2 02 be bd ba e1 bd f0 ce ec 3d 2b 15 2e 3e
       -0.12769464 -0.110219456 0.11562908 0.17000262
0003c0 21 16 ea bc 1c 58 c6 3d 33 e8 5d 3d f7 10 ee bd
       -0.028575005 0.09684774 0.05417652 -0.116243295
0003d0 2c 35 ea 3d 2a 2f 44 3d f5 96 75 bd a2 fe 86 bd
       0.11435923 0.04789654 -0.059958417 -0.06591536
0003e0 2e a6 db bd 4f b7 3c 3e a5 cc b5 bd 33 51 3d bd
       -0.10725056 0.18429302 -0.088769235 -0.046220016
0003f0 c2 5f 71 3d 06 07 ae bd 69 4e 36 3d 97 d5 74 3d
       0.058929212 -0.08497433 0.04450837 0.059774008

classifier.sub_nets.1.net.1.net.0.bias f4 [8]
000000 ac e7 c9 3d 63 fa c9 bd 0f d6 84 3c c0 27 bd bb
       0.09858641 -0.098622106 0.016215352 -0.005772561
000010 90 1f 0f 3d 9e 7c 40 bd d4 7a 75 bd e1 3d 8e 3c
       0.03494221 -0.046993844 -0.05993159 0.01736349

classifier.sub_nets.1.net.1.net.3.weight f4 [8]
000000 93 cb 7a 3f 27 41 90 3f 2e 8e 51 3f dd 23 77 3f
       0.9796688 1.1269883 0.81857574 0.965391
000010 70 35 85 3f 0b 63 85 3f a9 73 82 3f 55 2b 82 3f
       1.0406933 1.042085 1.0191547 1.0169474

classifier.sub_nets.1.net.1.net.3.bias f4 [8]
000000 e7 ba 08 be 81 64 6d 3d a1 7e ba 3d d3 c9 e5 bc
       -0.13352548 0.057957176 0.09106184 -0.028050339
000010 ad 92 26 be 48 97 b6 bc 90 40 e9 bd 79 65 a9 bc
       -0.1626689 -0.022288933 -0.113892674 -0.020678269

classifier.sub_nets.1.net.1.net.3.running_mean f4 [8]
000000 05 5a 00 3e 3e 40 93 3c 74 19 2f 3d c0 d1 d9 3d
       0.1253434 0.017974969 0.042748883 0.1063571
000010 08 52 bb 3d 45 1f a1 bc b0 30 df 3c 2c d2 32 bc
       0.091465056 -0.01966823 0.027244896 -0.010914367

classifier.sub_nets.1.net.1.net.3.running_var f4 [8]
000000 80 9f b4 3e 63 2b 35 3e 95 fb c5 3d de bb d3 3e
       0.3527794 0.17692332 0.09667126 0.4135427
000010 8d 65 fe 3c 05 38 3c 3c eb 23 ee 3d 81 ed 50 3c
       0.031054283 0.0114879655 0.116279446 0.012751938

classifier.sub_nets.1.net.2.net.0.weight f4 [4, 8, 5]
000000 00 67 98 3d 53 e0 8b 3d 20 01 78 3d 60 fa 29 3d
       0.07441521 0.06829896 0.060547948 0.04149854
000010 c0 77 80 3d e4 45 32 be 89 aa 5a be f1 07 34 be
       0.062728405 -0.17409474 -0.21354116 -0.17581154
000020 46 5b 3e be 89 5d 11 be 1a 38 3a 3c 6f a7 e5 bb
       -0.18589506 -0.14195837 0.011365915 -0.007008485
000030 44 81 83 bc 77 ee ff bc 3d 06 06 bd 22 fc a2 bd
       -0.01605285 -0.031241639 -0.032720793 -0.07958247
000040 a2 b4 13 be 76 31 06 be 9a fa 9a bd 50 82 c1 bd
       -0.14424375 -0.13104805 -0.0756733 -0.09448683
000050 a0 dd 11 be 16 ea fb bd 5d 7f f1 bd c9 78 e4 bd
       -0.142447 -0.12300508 -0.11791871 -0.111558504
000060 5c 3d 00 be a1 db c3 3d 41 f6 9c 3d ea c7 aa 3d
       -0.12523407 0.09563375 0.07664157 0.08338912
000070 3d 98 f5 3d d3 e4 fd 3d e9 6d fe 3d 65 a1 28 3e
       0.11991928 0.123971604 0.124233074 0.16467817
000080 19 84 31 3e 50 e4 54 3e 1d d4 0c 3e 46 1f 88 3d
       0.17335548 0.2079022 0.1375279 0.0664659
000090 0f 11 3b 3d 4c fd 9e 3c aa 07 38 3d 6c 4d 8b 3d
       0.045670565 0.01940789 0.044929184 0.068018764
0000a0 6a bd 48 3d cf 93 d2 3d 8a 68 7a 3d f3 2b c1 3d
       0.049008764 0.102820985 0.061134852 0.09432211
0000b0 26 99 0d 3e 59 f2 73 be 5a ec 61 be c2 47 31 be
       0.13827953 -0.23822917 -0.22062817 -0.1731253
0000c0 d9 82 4e be 14 d2 36 be 21 41 fb 3d 4b ce c3 3d
       -0.20167102 -0.17853576 0.12268282 0.09560832
0000d0 87 f7 64 3d 1b c2 c2 3d 87 9b 6f 3d 6e 5a f5 bc
       0.055900123 0.09509679 0.05849793 -0.029950347
0000e0 9a 3a d9 bd cd b4 9d bd 93 7f 94 bc 7e 5a 5b bd
       -0.106068805 -0.07700501 -0.018127238 -0.053553097
0000f0 4d e0 00 be 14 db b6 bd cf dd c4 bd 11 02 a6 bd
       -0.12585564 -0.089285046 -0.09612619 -0.08105863
000100 b6 d6 b9 bd f2 95 f1 3d e3 e9 ca 3d 0d fa a3 3d
       -0.09074156 0.11796178 0.099078916 0.08006678
000110 65 3e 0f 3e 7b f1 02 3e b4 1c c9 3d d6 1c 9e 3d
       0.13988645 0.1278743 0.09819928 0.07720344
000120 10 1c 9e 3d c2 9e b3 3d c1 c7 96 3d 4c 9c 90 3d
       0.07720196 0.08770515 0.07362319 0.07061061
000130 80 87 9a 3d 9a ce f9 3c 45 39 3d 3d c9 cc c9 3d
       0.07545376 0.030494023 0.046197195 0.09853513
000140 be c8 1f be 5b 54 34 be 72 13 7d bd 63 b9 fa bd
       -0.15603921 -0.17610304 -0.061786123 -0.12242391
000150 ec 97 14 be 76 a7 c7 3d b8 f3 cb 3d 0f 43 78 3d
       -0.14511079 0.097487375 0.09958595 0.060610827
000160 89 17 3a 3d 02 df 85 3d 20 35 c8 bd 79 dc bf bc
       0.0454326 0.06536676 -0.09775758 -0.02342056
000170 2b 18 68 3c fa 17 b3 bc eb fe 04 bd 56 eb 05 be
       0.014165918 -0.021862019 -0.03246967 -0.13078055
000180 f3 e5 75 bd 10 49 52 bd 58 ec d0 bd 65 c5 1b be
       -0.06003375 -0.05133921 -0.10201329 -0.15212019
000190 de 0e d1 3d d3 e8 94 3d 20 92 c1 3d 86 a5 60 3d
       0.10207914 0.0727097 0.09451699 0.054845355
0001a0 7d 03 58 3d 4c 40 1a be 20 90 0a be f5 89 fb bd
       0.0527377 -0.1506359 -0.13531542 -0.122821726
0001b0 e3 67 3e be e4 62 17 be 71 35 65 3b 10 7d a4 bd
       -0.18594317 -0.14783818 0.003497448 -0.08031666
0001c0 71 c3 65 bd 19 8d 94 bd 25 fe d4 bc 9e a2 13 be
       -0.05609459 -0.07253475 -0.026000092 -0.14417502
0001d0 78 1a 30 be 1d 1c 92 bd d2 92 b6 bd 39 95 14 be
       -0.17197597 -0.071342684 -0.089147225 -0.14510049
0001e0 04 a7 8a 3d 65 db 8e 3d ef a5 4d 3d db d3 25 3d
       0.06770137 0.0697544 0.050207075 0.040485244
0001f0 c3 01 41 3d 36 e6 14 be 28 d1 35 be e3 a3 24 be
       0.04712082 -0.14540944 -0.17755568 -0.16078143
000200 da 34 25 be 0f 01 ff bd a3 2d 24 bc d8 87 0e bd
       -0.16133443 -0.12451374 -0.010020646 -0.03479752
000210 e2 c1 20 bd d0 5d 31 bd 8b 0e 45 bd 6d 4e 8c bd
       -0.0392474 -0.043302357 -0.048109572 -0.06850896
000220 10 e9 f0 bd 88 fb e5 bd 8a d9 84 bd 36 17 a1 bd
       -0.11763203 -0.112296164 -0.06486805 -0.07865755
000230 41 ee f9 bd 78 b5 d9 bd 37 db c3 bd 7e 06 bd bd
       -0.122036465 -0.106303155 -0.09563296 -0.09229754
000240 1c db d2 bd b2 dc aa 3d 13 1f 98 3d cc 77 8b 3d
       -0.10295698 0.083428755 0.07427802 0.06809959
000250 e0 81 d5 3d f4 b4 c4 3d 1a 4d fb 3d 60 ce 22 3e
       0.10425162 0.096048266 0.12270565 0.15899038
000260 c8 ce 31 3e 79 c6 4b 3e 75 8e 0b 3e 75 f6 46 3d
       0.17364037 0.1989993 0.13628562 0.048574883
000270 f8 2e 00 3d 3d 58 01 3c 5a 8a 07 3d e5 01 3b 3d
       0.031294793 0.007894573 0.033090927 0.045656104

classifier.sub_nets.1.net.2.net.0.bias f4 [4]
000000 c7 bf 70 bc 3a da e4 3d 7f f7 93 bd 0f b0 30 3c
       -0.014694161 0.11174436 -0.072249405 0.010784163

classifier.sub_nets.1.net.2.net.3.weight f4 [4]
000000 eb 3f 1b 41 97 61 10 41 42 2a 10 41 c2 34 19 41
       9.703105 9.023826 9.010317 9.57538

classifier.sub_nets.1.net.2.net.3.bias f4 [4]
000000 94 d0 4c bf e5 5a af 3f c3 12 cc bd e7 b5 01 bf
       -0.80005765 1.3699614 -0.09964516 -0.50668186

classifier.sub_nets.1.net.2.net.3.running_mean f4 [4]
000000 7a a9 74 bc 51 40 78 3d bd 12 8d 3d 60 08 52 bc
       -0.0149329845 0.060608212 0.0688834 -0.01281938

classifier.sub_nets.1.net.2.net.3.running_var f4 [4]
000000 88 ba 16 3b bc 72 ea 3b 38 9c bd 3b 03 36 ef 3a
       0.0022999365 0.0071547907 0.005786445 0.001825035

classifier.sub_nets.1.net.5.weight f4 [13, 4]
000000 13 39 89 bf 32 74 1b c0 67 11 eb 3f f1 8b 5b bf
       -1.0720543 -2.428967 1.8364686 -0.8576041
000010 ca 71 31 c0 b1 fa 0f bf 50 8a 1a c0 07 06 27 c0
       -2.7725701 -0.562419 -2.414692 -2.6097429
000020 0c db cc be 2b 04 01 3f 50 93 83 bf 72 6a 09 3f
       -0.4001087 0.50396985 -1.0279331 0.5367805
000030 4b e7 9e bf a0 81 85 bf 4c 39 58 3f d2 aa 7e bf
       -1.2414335 -1.0430183 0.8446243 -0.994794
000040 10 ff 60 3f ae ae 54 40 44 b6 c3 3e 56 e3 45 3f
       0.87889194 3.3231616 0.38224995 0.7730001
000050 16 da 7e bf cd 54 0f c0 c2 ed c8 3f a9 6d 54 bf
       -0.9955152 -2.2395508 1.5697558 -0.8297983
000060 fb 42 a1 bf 60 63 1c c0 29 5e db 3f 86 8e 94 bf
       -1.2598566 -2.4435654 1.713811 -1.1605995
000070 8c f1 bf bf 92 3b 14 bf a4 05 24 3f 77 45 b2 bf
       -1.4995589 -0.579034 0.64071107 -1.3927449
000080 61 0f 9e 40 e1 7b 20 40 14 66 14 c0 24 59 92 40
       4.9393773 2.507561 -2.3187304 4.5733814
000090 c2 86 22 c0 91 b4 bd 3f a5 d8 99 c0 ed 7a 4d c0
       -2.539475 1.482073 -4.807696 -3.2106278
0000a0 d9 47 7e bf ea 9f d8 bd a0 0f 79 3f 5e 1b 91 bf
       -0.9932838 -0.10577376 0.97289467 -1.1336477
0000b0 4e 3c 9c 40 7d 51 06 40 cc 81 3a c0 42 c9 91 40
       4.8823614 2.0987236 -2.9141722 4.5558176
0000c0 8b 4a a3 40 ab 79 24 40 d2 2d 4e c0 d5 99 8f 40
       5.1028495 2.569926 -3.2215466 4.4875283

classifier.sub_nets.1.net.5.bias f4 [13]
000000 68 62 28 c0 0a f8 4d 3f fc ff fe 3f 04 0b 3e 3f
       -2.6310062 0.804566 1.992187 0.7423556
000010 6d 9b 91 3f 36 97 13 c0 6f f8 39 3d 41 f4 d3 3f
       1.1375557 -2.3061042 0.04540294 1.6558915
000020 da f9 13 40 91 31 1f bf 49 dc 5b be b0 0e 2d c0
       2.3121247 -0.6218501 -0.21470751 -2.7040215
000030 ff c3 28 c0
       -2.6369627

classifier.sub_nets.2.net.0.net.0.weight f4 [8, 1, 5]
000000 d3 7a 87 3d c8 81 a3 3e 91 9a 54 3e 97 64 36 3e
       0.06615224 0.31934953 0.20762087 0.1781181
000010 36 00 f8 3c 54 2d 81 be ac e7 16 be 76 3a a1 be
       0.030273538 -0.25229895 -0.14736813 -0.31489915
000020 5c a5 cb be 89 fc 0d be 76 1b 06 bf 0c af cd be
       -0.39774597 -0.13865866 -0.5238565 -0.40172613
000030 b1 78 8d 3d 91 27 32 be 86 9a da bd e0 81 d5 3d
       0.06907786 -0.17397906 -0.10674004 0.10425162
000040 d4 c2 87 be 90 26 ac bd 23 eb 5d be ac 41 0f bd
       -0.2651583 -0.08405793 -0.21671729 -0.03497474
000050 54 19 90 3e aa 36 ce 3c 1a 41 8a be ed c7 d6 be
       0.28144324 0.02517255 -0.27002794 -0.41949406
000060 68 07 a3 be bb c0 98 3e 32 8b dd bd b5 d8 22 be
       -0.31841588 0.29834542 -0.10817565 -0.1590298
000070 c3 fc bf bd d7 1c 18 3e d7 10 ad be f0 8a d7 3e
       -0.09374382 0.14854752 -0.3380191 0.42098188
000080 a8 ca 8b 3d ae af 38 be 41 24 b7 be 10 c3 00 bd
       0.06825763 -0.18035766 -0.35769847 -0.031436026
000090 02 09 90 bb f9 18 f1 3d ef 78 8f be ea 68 01 bf
       -0.004395605 0.11772341 -0.28021953 -0.5055071

classifier.sub_nets.2.net.0.net.0.bias f4 [8]
000000 b2 f8 5d be 05 68 6f be c5 4a 17 3d 14 66 17 be
       -0.21676901 -0.23379524 0.03693654 -0.14785033
000010 44 55 06 3e ce b2 2d 3b e7 10 f1 be 75 50 b8 3e
       0.13118464 0.002650428 -0.47083208 0.35998884

classifier.sub_nets.2.net.0.net.3.weight f4 [8]
000000 31 f1 8e 3f ad 95 75 3f 04 b8 85 3f b0 34 66 3f
       1.1167356 0.9593151 1.0446782 0.89924145
000010 fd 04 8e 3f 43 b5 74 3f ba 45 70 3f aa 91 7d 3f
       1.1095272 0.95589083 0.93856394 0.9905039

classifier.sub_nets.2.net.0.net.3.bias f4 [8]
000000 d1 37 a4 3b 15 1a 6c bd 64 4c b9 3d e7 f6 05 3d
       0.0050115366 -0.05764206 0.090477735 0.032706168
000010 36 d5 12 3d 96 72 92 3c 8a d3 9d 3c cc 9f b4 3d
       0.035847865 0.017876904 0.019265909 0.08819541

classifier.sub_nets.2.net.0.net.3.running_mean f4 [8]
000000 f8 c3 24 bd ae e9 4c bd 1a f9 ee 3c 80 42 fd bc
       -0.040225953 -0.05002754 0.029171515 -0.030915499
000010 6a 1b fe 3d 1a 96 83 3b 80 e6 c2 bd 9c d1 b3 3e
       0.124075726 0.0040156962 -0.09516621 0.35120857

classifier.sub_nets.2.net.0.net.3.running_var f4 [8]
000000 e1 dd 14 3a 0e a1 31 39 54 58 bf 39 4c 17 f6 37
       0.00056788145 0.00016940033 0.00036496168 2.9336334e-05
000010 22 99 2d 3a d8 b0 12 38 9f c8 8b 37 a2 d7 91 3a
       0.0006622245 3.497381e-05 1.6663513e-05 0.0011126886

classifier.sub_nets.2.net.1.net.0.weight f4 [8, 8, 5]
000000 ae bb 46 be da b7 b9 bd 90 63 30 be 51 84 11 be
       -0.19407532 -0.0906827 -0.1722548 -0.14210631
000010 0e 60 eb bd 88 8e bd bd 03 0f 71 bd 8f ac 87 3d
       -0.1149293 -0.09255701 -0.058852207 0.0662471
000020 5b 5f a5 3d c4 f1 c5 3d b0 66 15 be 12 d7 bc bd
       0.08074828 0.09665254 -0.14589953 -0.09220709
000030 d5 e4 87 bd 77 c2 be 3d 56 25 38 bd b6 6a 54 bd
       -0.06635443 0.09314435 -0.04495748 -0.05185958
000040 01 d3 a2 3d 58 2c b4 bd 40 06 ac 3c b2 da 86 bd
       0.07950402 -0.087975204 0.020999074 -0.065846816
000050 8b 63 17 3d 00 cc e0 3c 62 2f b6 3d ba 33 b9 3d
       0.036960166 0.027441025 0.08895756 0.09043069
000060 9b 1a c7 3c e2 eb cd bc 35 be a0 bc 5e 88 c3 bd
       0.024304679 -0.025136892 -0.019621948 -0.09547494
000070 0c f2 20 bd c2 2c b4 3c 3e 31 8f bd 54 53 f8 bd
       -0.039293334 0.021993998 -0.06991814 -0.121252686
000080 3e 5a 1d be 55 a6 82 bd 36 82 b7 3b 0a 6c aa bd
       -0.15366456 -0.063793816 0.005600239 -0.08321388
000090 8a ca 3f bd 82 94 1f be 6c 07 18 be 8e bf 0b be
       -0.046824016 -0.15583995 -0.14846581 -0.13647291
0000a0 0b 2c cd bd aa 64 19 be c5 5e 41 be 6b 86 08 bd
       -0.10018166 -0.14979807 -0.18883808 -0.033331316
0000b0 a9 da 4e be a7 12 a1 3d 34 f6 69 bd 18 03 d9 bd
       -0.202006 0.07864886 -0.057119563 -0.10596293
0000c0 d1 92 1c 3d 93 8b be 3d a6 77 c0 bd 63 12 bd bd
       0.038225953 0.093039654 -0.09397821 -0.092320226
0000d0 c5 18 6a 3c de 09 f2 3d 78 10 19 bd 25 c5 d2 3d
       0.014288132 0.11818288 -0.03736922 0.102915086
0000e0 f5 75 77 3d cc a6 f7 bc 29 57 1c 3e 5c 64 12 be
       0.060415227 -0.030230902 0.15267624 -0.14296097
0000f0 9b 02 4f bc 57 7d 89 bc 6d aa 09 3e bb ed 48 3d
       -0.012634899 -0.0167834 0.13443919 0.049054842
000100 16 f0 36 be 55 9d 0d be 71 81 04 3d 22 9d b8 3d
       -0.17865023 -0.13829549 0.032350007 0.09014346
000110 b4 f3 1e bd 75 d5 15 be c9 6c 30 3b 83 0d 17 bc
       -0.038806632 -0.14632209 0.002692031 -0.00921953
000120 c4 a7 23 3e f0 96 1b be ab cc 14 3e 20 d9 0e be
       0.15981966 -0.15194297 0.145312 -0.13950014
000130 76 5d ca bd e4 28 85 3b b2 91 be 3d 56 4c 33 be
       -0.098811075 0.0040637124 0.09305133 -0.17509589
000140 e9 f3 5e 3e eb e7 cf 3b d4 ca 39 3e 11 85 f8 3c
       0.21772732 0.0063447854 0.18143779 0.030336889
000150 8e 0a 6f 3d b4 69 fc bd 7c 49 da 3d bf cd 7f 3d
       0.058359675 -0.12324849 0.10658547 0.062452074
000160 1f bc b3 3c f1 27 f7 bd b6 d2 56 3d 68 a1 0c 3e
       0.021940289 -0.12068165 0.052447043 0.13733447
000170 ee c2 b7 3d 61 6d 40 bd 04 d3 08 3d 0d d8 45 3d
       0.08972727 -0.04697931 0.033404365 0.048301745
000180 5d 26 8f 3d dc 2f 29 bd 3f a4 6e 3d 3d a2 19 be
       0.06989739 -0.041305408 0.058262106 -0.15003295
000190 53 cc b8 3d 57 0d 34 3c 9a e1 6c 3c cd e0 0a be
       0.09023347 0.010989509 0.0144580845 -0.13562317
0001a0 a6 ff f9 3c e8 16 7d 3e 22 09 90 bd 06 80 35 bc
       0.03051741 0.2471577 -0.07032992 -0.011077886
0001b0 9e 03 9f 3c 90 7c 65 3e 8c ba 0f 3c 1c 4e dc 3d
       0.019410904 0.22410798 0.008772504 0.10757086
0001c0 d5 7f cf 3d 2b 51 7b bd 2b 2d 82 bd 08 55 4e 3a
       0.10131804 -0.061356705 -0.06356271 0.0007870947
0001d0 a5 ea 97 bd 4c c4 1a bb d3 49 94 bd fd 82 29 bd
       -0.07417802 -0.0023615537 -0.07240643 -0.041384686
0001e0 62 9d 2c be a3 4a 51 be c4 86 40 bd f3 84 43 be
       -0.16856912 -0.20438628 -0.047003523 -0.19093685
0001f0 5b 95 06 be 0a 57 17 be bb a5 d4 bd 71 ed 87 3d
       -0.13142912 -0.14779297 -0.10383173 0.06637085
000200 a4 2b 77 be 1d e0 b6 3d 8a d9 d7 3d fa ed a4 bd
       -0.24137741 0.08929465 0.10539539 -0.08053203
000210 43 0d a6 bc 34 45 bc bc a0 4c 8b 3d 17 2f 4e bd
       -0.020269996 -0.022982217 0.068017244 -0.050337877
000220 10 a5 78 bd 0b 33 4e bd 4b e5 0b 3a d9 99 55 3e
       -0.06070429 -0.050341647 0.00053365965 0.2085947
000230 65 47 96 3c 88 42 b1 3d b0 46 40 3d 3a 7d 1c 3e
       0.01834459 0.08655268 0.046942413 0.15282145
000240 69 36 1f 3e df 6c 59 3b 9e f5 1b be af c9 51 bd
       0.155481 0.0033176464 -0.15230414 -0.05121773
000250 7e 5e 92 bd 69 1f 86 bd be 08 ac 3d 91 ad 62 3d
       -0.07146929 -0.0654896 0.08400105 0.055341307
000260 44 e1 78 be 5d fd 0d be 81 69 15 3e 45 b7 24 bc
       -0.24304682 -0.13866182 0.14591028 -0.0100534605
000270 c1 c9 64 bd 9c fe 91 bd f6 94 d4 bb c1 83 67 bd
       -0.05585647 -0.07128641 -0.006487484 -0.056522135
000280 ab be 67 3c c4 89 cd bd a7 05 ab 3c 83 d8 d2 3d
       0.01414458 -0.10036042 0.020876719 0.102952026
000290 2b 2b 2d be ca 18 17 3e 70 1d f4 3d 39 55 dd 3c
       -0.16910999 0.1475555 0.11919677 0.027018176
0002a0 21 1f 61 3c 24 99 02 bb c1 3d c8 bd 86 90 bc bd
       0.013740332 -0.0019927705 -0.097774036 -0.09207253
0002b0 83 bb 04 be 6d e0 ab 3d 5e 20 3f 3e 9c e4 80 bd
       -0.12962155 0.08392415 0.18664691 -0.06293604
0002c0 ed dc dc bd 33 e0 8c 3d 3c 14 03 be d6 b4 37 bd
       -0.10784326 0.068787 -0.12800688 -0.044850193
0002d0 f9 5b 8b 3d 75 7e fb 3d 98 9f 52 bc c7 89 3b 3e
       0.06804652 0.12279979 -0.012855433 0.18314277
0002e0 e3 61 a0 3c b7 32 b2 bd 91 35 7c be de 9b c9 3d
       0.019577926 -0.08701079 -0.24629809 0.098441824
0002f0 21 e6 29 bd f0 08 49 bd 2d cd b7 bd d1 52 d5 bc
       -0.041479234 -0.04908079 -0.08974681 -0.026040467
000300 67 53 9a bc da 79 43 be 12 4f 77 bd 7b 2c 0b be
       -0.018838597 -0.19089451 -0.06037814 -0.13591187
000310 c4 b6 bf bd cc e1 8f bd 66 d4 db bd a9 bb e8 bd
       -0.09361032 -0.07025489 -0.10733871 -0.11363918
000320 83 fa 12 be 77 98 21 3e 8d dc 8d 3b 1d 14 e3 3d
       -0.14353375 0.15780817 0.00432927 0.11087821
000330 c0 c4 44 bd 75 a6 27 3e 0b f5 37 bd 2d c3 0f 3e
       -0.048039198 0.16372092 -0.044911426 0.14039297
000340 6f d0 86 bd 0e 4e 2e 3e 88 b6 67 be eb a9 04 be
       -0.06582724 0.17021963 -0.22628224 -0.12955444
000350 25 d6 02 3d 3a 26 85 bc 06 6e 69 bd c2 ea c7 3d
       0.031942505 -0.01625358 -0.056989692 0.097615734
000360 a9 cd 61 bd 6a de 07 3e 15 2c e5 bc 27 12 0e 3e
       -0.055127773 0.13268438 -0.027975122 0.13874112
000370 12 cf 53 be 6e 38 0b bd 4f a4 98 3c 7f d6 4c 3e
       -0.2068446 -0.033989362 0.018633036 0.20003699
000380 3f 82 db bc db ba d8 3c 46 d4 a1 bd 44 2a 90 3d
       -0.026795505 0.026456287 -0.07901816 0.070393115
000390 94 4a 85 bd 06 11 38 be bf d5 36 3e 92 32 44 bd
       -0.06508365 -0.17975244 0.17854975 -0.04789979
0003a0 c6 4f a2 bd 89 25 0f bd e8 f6 c5 3d 7a 42 fa 3c
       -0.07925372 -0.034947906 0.09666234 0.030549277
0003b0 4f 12 96 3d e0 16 12 3d 55 82 79 bd 5a 0e 01 bb
       0.07327711 0.035666347 -0.06091531 -0.0019692392
0003c0 14 d8 24 bb 19 1c 0c bd c5 4a a0 bc ff fa 0a 3d
       -0.0025153207 -0.034206484 -0.019566903 0.033930775
0003d0 34 cf b6 3c c3 d6 a9 3d b4 54 a0 3d b9 62 f8 bb
       0.022315599 0.08292916 0.07828656 -0.007580128
0003e0 0c 93 bf bd 4d 80 2e 3d 00 32 2a 3e 10 a9 71 be
       -0.09354219 0.042602826 0.16620636 -0.23599648
0003f0 6f 98 60 be 8c 23 46 3e e8 9a 0d 3e 65 69 47 3e
       -0.21933149 0.19349498 0.13828623 0.19473799

classifier.sub_nets.2.net.1.net.0.bias f4 [8]
000000 32 14 1e 3f 6b be 11 bd da 3c 89 3e 47 97 a8 3d
       0.61749566 -0.035581987 0.2680424 0.08231979
000010 d6 2d 91 3d 74 a3 29 be 7f ae 51 be ec 5b 1e 3e
       0.07088821 -0.16566259 -0.20476721 0.15464753

classifier.sub_nets.2.net.1.net.3.weight f4 [8]
000000 40 46 5c 3f 08 e6 8d 3f ea 3f 76 3f 63 02 6a 3f
       0.86044693 1.1085825 0.96191275 0.9140989
000010 ce be 87 3f d8 81 87 3f 18 a7 8e 3f e0 12 6f 3f
       1.0605104 1.05865 1.1144743 0.93388176

classifier.sub_nets.2.net.1.net.3.bias f4 [8]
000000 e7 60 f7 3d 68 97 42 3d 5d ac 3d bd ad fb 00 3e
       0.120790295 0.047507674 -0.046306957 0.12596007
000010 31 e1 97 3d e6 09 8a bc a2 45 84 3e 41 7d 91 bd
       0.07415999 -0.016850423 0.25834376 -0.071039684

classifier.sub_nets.2.net.1.net.3.running_mean f4 [8]
000000 e8 7c 09 3f 7e d5 68 3c 9a 63 9e 3e 72 cf 43 3e
       0.53706217 0.014211057 0.30935365 0.19122103
000010 c3 7c e7 3c ec c6 86 bc 08 da ae bc d6 63 6c 3e
       0.028257733 -0.016452275 -0.0213442 0.2308496

classifier.sub_nets.2.net.1.net.3.running_var f4 [8]
000000 6c 60 8d 3d 68 e0 0e 3d f0 94 a1 3e de bf 1a 3d
       0.06903157 0.03488198 0.31558943 0.037780635
000010 02 60 f3 3c fe a4 c6 3c 80 62 81 3c 56 ce 91 3d
       0.029708866 0.024248596 0.015794039 0.071194336

classifier.sub_nets.2.net.2.net.0.weight f4 [4, 8, 5]
000000 16 54 4a bd 62 96 d4 3a f6 80 ec 3d 94 ad 10 3e
       -0.049396597 0.0016219134 0.11548035 0.14128715
000010 14 2b f3 3d 0b db 20 be c5 2c 86 be 43 57 97 be
       0.11873451 -0.15708558 -0.2620603 -0.29558763
000020 64 76 99 be d6 fc 64 be 22 99 4a be d0 34 36 be
       -0.29973137 -0.22362074 -0.19784978 -0.17793584
000030 f8 64 f8 bd 7e 71 73 be d5 b6 f2 3b 8b fe 93 3d
       -0.12128633 -0.23773763 0.007407049 0.072262846
000040 6a c2 af 3d 37 99 e9 bd 75 a2 c8 3d 24 b2 29 3e
       0.085820034 -0.114061765 0.09796611 0.16571862
000050 cc 14 d1 bd e1 8a 0b be b6 30 05 bd 17 7a 2d bc
       -0.10209045 -0.13627197 -0.032517157 -0.0105881905
000060 94 be 88 3c 48 a1 45 bd 78 cc 68 3d 68 ec d9 bb
       0.016692437 -0.048249513 0.05683562 -0.0066504963
000070 cb bf c4 bd af b2 d7 bd 14 f2 4f bd 83 b1 9c bd
       -0.09606894 -0.10532128 -0.050767973 -0.07651045
000080 69 f2 f1 3c ea 0c f0 3c e7 23 64 bd 65 08 d9 bd
       0.029534535 0.029303033 -0.0556983 -0.10597304
000090 9a 77 7c bb 12 75 87 bc 13 f3 21 3d 0d c4 07 3c
       -0.0038523437 -0.016535316 0.039538454 0.008286488
0000a0 05 25 9d 3d 7b 8b ae 3c 77 89 26 3d 05 1e ce 3c
       0.076730765 0.021306744 0.04065844 0.025160799
0000b0 17 8b c7 3d e7 bb 16 3e fa 90 1d 3e 46 6c f4 3d
       0.09743326 0.14720117 0.15387335 0.11934714
0000c0 cc 57 b4 3d 6d f2 a4 3d 26 8f 2b be 6e a9 ae bd
       0.088058084 0.080540515 -0.16753826 -0.0852841
0000d0 e8 a6 ca bd b3 2b f3 3d 12 6f 0b bd dc b7 a0 3d
       -0.09895116 0.11873569 -0.03404147 0.078475684
0000e0 e8 77 3c bd 3b 51 9a bc d5 b4 6f 3d 8f f4 41 3e
       -0.04601279 -0.018837562 0.058522064 0.18940948
0000f0 5f 71 c7 3d 18 f3 00 3e 78 d1 3a 3d 35 01 d6 3d
       0.09738421 0.12592733 0.04560992 0.10449449
000100 e1 18 bf 3d 47 52 74 be 01 c9 1a be df 01 13 be
       0.09330917 -0.23859511 -0.1511574 -0.14356183
000110 b9 a1 17 be fc b6 72 bd df e7 1a be 3b 53 31 be
       -0.14807786 -0.05925654 -0.15127514 -0.17316906
000120 f7 80 0d be af cf 4a be 85 30 14 be 56 67 06 3d
       -0.13818727 -0.19805788 -0.14471634 0.032813393
000130 98 4b b3 3d 1f f6 23 3e 05 18 05 3e 0e 06 c8 3d
       0.08754653 0.16011856 0.12997444 0.0976678
000140 aa 6b 73 bb 14 a9 48 3d 2e 2c e8 3c 13 e8 dc 3b
       -0.003714303 0.04898937 0.028341379 0.0067415326
000150 09 44 41 3e d4 74 20 bd a5 0b e3 bd f1 95 5d bd
       0.1887361 -0.039173916 -0.110862054 -0.054098073
000160 e6 f1 2a be c4 b1 e6 bd be b0 23 be 0e f3 19 be
       -0.1669384 -0.11264375 -0.1598539 -0.15034124
000170 12 08 82 be aa b4 12 be 0a 70 29 be f8 ff d8 3d
       -0.25396782 -0.1432673 -0.16546646 0.10595697
000180 20 30 86 bd cf b3 1e 3d f2 df d0 3c 8d 91 21 3e
       -0.06552148 0.038745698 0.02549741 0.1577818
000190 e0 0d 13 bd 6e 93 cb 3b 46 c8 7a 3b ef b7 e4 3d
       -0.035901904 0.0062126433 0.0038266345 0.11167895
0001a0 e1 89 dd 3d b9 ca da bd c1 17 5c bc ab 3e 94 bd
       0.10817314 -0.106831975 -0.013433398 -0.072385155
0001b0 d8 fe e5 bd ae 04 d9 bd 34 8e a9 bd 19 5f 03 be
       -0.11230248 -0.10596596 -0.08279076 -0.12829246
0001c0 b7 11 a5 bd 0e 98 f4 bd dc 67 f1 bd f2 b2 f7 bd
       -0.080600195 -0.11943065 -0.11787388 -0.12094678
0001d0 b6 82 22 bc 30 ea 37 3d d5 52 11 3d 9c e1 b6 3d
       -0.009918859 0.044901073 0.035479385 0.0892975
0001e0 a9 20 2a bd aa 6b 0d bd de af 10 bd 0f 76 ad bd
       -0.041535053 -0.034526505 -0.03532397 -0.084697835
0001f0 c5 62 f6 bd 9a b3 d1 bd d9 a1 eb bd 0e cc eb bd
       -0.120305575 -0.102393344 -0.11505479 -0.1151353
000200 50 b2 73 3b 43 71 bd 3b 3d d4 05 bc 43 60 ef 3c
       0.003718514 0.005781324 -0.008168277 0.029220706
000210 0b 9e d2 3d c2 c2 cd 3b 02 60 be 3d 61 22 b6 bd
       0.102840506 0.0062793205 0.09295656 -0.08893276
000220 17 24 2f bd aa 02 a7 bc da 63 15 bc 35 c1 12 be
       -0.042759027 -0.020387013 -0.009118045 -0.14331515
000230 67 33 23 be b9 f2 28 be b9 e0 f6 bd e4 0a 2a be
       -0.15937577 -0.16498841 -0.12054581 -0.16605717
000240 81 cc d0 bd f5 66 52 3e 10 a0 b6 3d ad c8 a9 3d
       -0.10195256 0.20547087 0.08917248 0.08290229
000250 d9 85 f3 3c fe ed 96 3c 8c 3f 00 3e 2f 06 25 3e
       0.02972691 0.01842403 0.12524241 0.1611564
000260 d7 27 47 3e dd 47 43 3e 96 e7 3a 3e 61 44 1d 3d
       0.19448791 0.19070382 0.18252406 0.03839529
000270 c7 57 84 bc 89 2c 65 bc 22 05 a6 39 bb a5 ad 3a
       -0.016155137 -0.013987669 0.00031665812 0.0013248244

classifier.sub_nets.2.net.2.net.0.bias f4 [4]
000000 58 d7 02 3c e0 96 94 bc 20 84 66 3e 78 3b 0b 3e
       0.007985912 -0.018138349 0.22511339 0.13596904

classifier.sub_nets.2.net.2.net.3.weight f4 [4]
000000 6e 63 f3 40 d4 38 69 41 95 48 db 40 b5 2d 2d 41
       7.6058874 14.576374 6.85261 10.823659

classifier.sub_nets.2.net.2.net.3.bias f4 [4]
000000 6c 5d a4 bf 7d b1 a7 3e ba 41 18 c0 27 48 86 3f
       -1.284101 0.327526 -2.3790116 1.0490769

classifier.sub_nets.2.net.2.net.3.running_mean f4 [4]
000000 b6 c1 33 3e 5e ac 25 3c 36 3a 92 3e 55 9c 75 3e
       0.17554364 0.010111896 0.28560036 0.23985417

classifier.sub_nets.2.net.2.net.3.running_var f4 [4]
000000 8c 5e 4d 3d f9 41 31 3d 99 a5 6d 3d b6 75 84 3d
       0.050138995 0.043275807 0.058019254 0.06467764
